node {
  name: "input0"
  op: "Placeholder"
  attr {
    key: "dtype"
    value {
      type: DT_FLOAT
    }
  }
  attr {
    key: "shape"
    value {
      shape {
        dim {
          size: 1
        }
        dim {
          size: 64
        }
        dim {
          size: 128
        }
        dim {
          size: 1
        }
      }
    }
  }
}
node {
  name: "tinyLPR/mobile_net_v3_small/conv1/Conv2D/ReadVariableOp/resource"
  op: "Const"
  attr {
    key: "dtype"
    value {
      type: DT_FLOAT
    }
  }
  attr {
    key: "value"
    value {
      tensor {
        dtype: DT_FLOAT
        tensor_shape {
          dim {
            size: 3
          }
          dim {
            size: 3
          }
          dim {
            size: 1
          }
          dim {
            size: 16
          }
        }
        tensor_content: "…"
      }
    }
  }
}
node {
  name: "tinyLPR/mobile_net_v3_small/bn1/ReadVariableOp/resource"
  op: "Const"
  attr {
    key: "dtype"
    value {
      type: DT_FLOAT
    }
  }
  attr {
    key: "value"
    value {
      tensor {
        dtype: DT_FLOAT
        tensor_shape {
          dim {
            size: 16
          }
        }
        tensor_content: "…"
      }
    }
  }
}
node {
  name: "tinyLPR/mobile_net_v3_small/bn1/ReadVariableOp_1/resource"
  op: "Const"
  attr {
    key: "dtype"
    value {
      type: DT_FLOAT
    }
  }
  attr {
    key: "value"
    value {
      tensor {
        dtype: DT_FLOAT
        tensor_shape {
          dim {
            size: 16
          }
        }
        tensor_content: "…"
      }
    }
  }
}
node {
  name: "tinyLPR/mobile_net_v3_small/bn1/FusedBatchNormV3/ReadVariableOp/resource"
  op: "Const"
  attr {
    key: "dtype"
    value {
      type: DT_FLOAT
    }
  }
  attr {
    key: "value"
    value {
      tensor {
        dtype: DT_FLOAT
        tensor_shape {
          dim {
            size: 16
          }
        }
        tensor_content: "…"
      }
    }
  }
}
node {
  name: "tinyLPR/mobile_net_v3_small/bn1/FusedBatchNormV3/ReadVariableOp_1/resource"
  op: "Const"
  attr {
    key: "dtype"
    value {
      type: DT_FLOAT
    }
  }
  attr {
    key: "value"
    value {
      tensor {
        dtype: DT_FLOAT
        tensor_shape {
          dim {
            size: 16
          }
        }
        tensor_content: "…"
      }
    }
  }
}
node {
  name: "tinyLPR/mobile_net_v3_small/bottle_neck/block/pw_in/conv2d/Conv2D/ReadVariableOp/resource"
  op: "Const"
  attr {
    key: "dtype"
    value {
      type: DT_FLOAT
    }
  }
  attr {
    key: "value"
    value {
      tensor {
        dtype: DT_FLOAT
        tensor_shape {
          dim {
            size: 1
          }
          dim {
            size: 1
          }
          dim {
            size: 16
          }
          dim {
            size: 16
          }
        }
        tensor_content: "…"
      }
    }
  }
}
node {
  name: "tinyLPR/mobile_net_v3_small/bottle_neck/block/pw_in/batch_normalization/ReadVariableOp/resource"
  op: "Const"
  attr {
    key: "dtype"
    value {
      type: DT_FLOAT
    }
  }
  attr {
    key: "value"
    value {
      tensor {
        dtype: DT_FLOAT
        tensor_shape {
          dim {
            size: 16
          }
        }
        tensor_content: "…"
      }
    }
  }
}
node {
  name: "tinyLPR/mobile_net_v3_small/bottle_neck/block/pw_in/batch_normalization/ReadVariableOp_1/resource"
  op: "Const"
  attr {
    key: "dtype"
    value {
      type: DT_FLOAT
    }
  }
  attr {
    key: "value"
    value {
      tensor {
        dtype: DT_FLOAT
        tensor_shape {
          dim {
            size: 16
          }
        }
        tensor_content: "…"
      }
    }
  }
}
node {
  name: "tinyLPR/mobile_net_v3_small/bottle_neck/block/pw_in/batch_normalization/FusedBatchNormV3/ReadVariableOp/resource"
  op: "Const"
  attr {
    key: "dtype"
    value {
      type: DT_FLOAT
    }
  }
  attr {
    key: "value"
    value {
      tensor {
        dtype: DT_FLOAT
        tensor_shape {
          dim {
            size: 16
          }
        }
        tensor_content: "…"
      }
    }
  }
}
node {
  name: "tinyLPR/mobile_net_v3_small/bottle_neck/block/pw_in/batch_normalization/FusedBatchNormV3/ReadVariableOp_1/resource"
  op: "Const"
  attr {
    key: "dtype"
    value {
      type: DT_FLOAT
    }
  }
  attr {
    key: "value"
    value {
      tensor {
        dtype: DT_FLOAT
        tensor_shape {
          dim {
            size: 16
          }
        }
        tensor_content: "…"
      }
    }
  }
}
node {
  name: "tinyLPR/mobile_net_v3_small/bottle_neck/block/dw/depthwise_conv2d/depthwise/ReadVariableOp/resource"
  op: "Const"
  attr {
    key: "dtype"
    value {
      type: DT_FLOAT
    }
  }
  attr {
    key: "value"
    value {
      tensor {
        dtype: DT_FLOAT
        tensor_shape {
          dim {
            size: 3
          }
          dim {
            size: 3
          }
          dim {
            size: 16
          }
          dim {
            size: 1
          }
        }
        tensor_content: "…"
      }
    }
  }
}
node {
  name: "tinyLPR/mobile_net_v3_small/bottle_neck/block/dw/batch_normalization_1/ReadVariableOp/resource"
  op: "Const"
  attr {
    key: "dtype"
    value {
      type: DT_FLOAT
    }
  }
  attr {
    key: "value"
    value {
      tensor {
        dtype: DT_FLOAT
        tensor_shape {
          dim {
            size: 16
          }
        }
        tensor_content: "…"
      }
    }
  }
}
node {
  name: "tinyLPR/mobile_net_v3_small/bottle_neck/block/dw/batch_normalization_1/ReadVariableOp_1/resource"
  op: "Const"
  attr {
    key: "dtype"
    value {
      type: DT_FLOAT
    }
  }
  attr {
    key: "value"
    value {
      tensor {
        dtype: DT_FLOAT
        tensor_shape {
          dim {
            size: 16
          }
        }
        tensor_content: "…"
      }
    }
  }
}
node {
  name: "tinyLPR/mobile_net_v3_small/bottle_neck/block/dw/batch_normalization_1/FusedBatchNormV3/ReadVariableOp/resource"
  op: "Const"
  attr {
    key: "dtype"
    value {
      type: DT_FLOAT
    }
  }
  attr {
    key: "value"
    value {
      tensor {
        dtype: DT_FLOAT
        tensor_shape {
          dim {
            size: 16
          }
        }
        tensor_content: "…"
      }
    }
  }
}
node {
  name: "tinyLPR/mobile_net_v3_small/bottle_neck/block/dw/batch_normalization_1/FusedBatchNormV3/ReadVariableOp_1/resource"
  op: "Const"
  attr {
    key: "dtype"
    value {
      type: DT_FLOAT
    }
  }
  attr {
    key: "value"
    value {
      tensor {
        dtype: DT_FLOAT
        tensor_shape {
          dim {
            size: 16
          }
        }
        tensor_content: "…"
      }
    }
  }
}
node {
  name: "tinyLPR/mobile_net_v3_small/bottle_neck/block/pw_out/conv2d_1/Conv2D/ReadVariableOp/resource"
  op: "Const"
  attr {
    key: "dtype"
    value {
      type: DT_FLOAT
    }
  }
  attr {
    key: "value"
    value {
      tensor {
        dtype: DT_FLOAT
        tensor_shape {
          dim {
            size: 1
          }
          dim {
            size: 1
          }
          dim {
            size: 16
          }
          dim {
            size: 16
          }
        }
        tensor_content: "…"
      }
    }
  }
}
node {
  name: "tinyLPR/mobile_net_v3_small/bottle_neck/block/pw_out/batch_normalization_2/ReadVariableOp/resource"
  op: "Const"
  attr {
    key: "dtype"
    value {
      type: DT_FLOAT
    }
  }
  attr {
    key: "value"
    value {
      tensor {
        dtype: DT_FLOAT
        tensor_shape {
          dim {
            size: 16
          }
        }
        tensor_content: "…"
      }
    }
  }
}
node {
  name: "tinyLPR/mobile_net_v3_small/bottle_neck/block/pw_out/batch_normalization_2/ReadVariableOp_1/resource"
  op: "Const"
  attr {
    key: "dtype"
    value {
      type: DT_FLOAT
    }
  }
  attr {
    key: "value"
    value {
      tensor {
        dtype: DT_FLOAT
        tensor_shape {
          dim {
            size: 16
          }
        }
        tensor_content: "…"
      }
    }
  }
}
node {
  name: "tinyLPR/mobile_net_v3_small/bottle_neck/block/pw_out/batch_normalization_2/FusedBatchNormV3/ReadVariableOp/resource"
  op: "Const"
  attr {
    key: "dtype"
    value {
      type: DT_FLOAT
    }
  }
  attr {
    key: "value"
    value {
      tensor {
        dtype: DT_FLOAT
        tensor_shape {
          dim {
            size: 16
          }
        }
        tensor_content: "…"
      }
    }
  }
}
node {
  name: "tinyLPR/mobile_net_v3_small/bottle_neck/block/pw_out/batch_normalization_2/FusedBatchNormV3/ReadVariableOp_1/resource"
  op: "Const"
  attr {
    key: "dtype"
    value {
      type: DT_FLOAT
    }
  }
  attr {
    key: "value"
    value {
      tensor {
        dtype: DT_FLOAT
        tensor_shape {
          dim {
            size: 16
          }
        }
        tensor_content: "…"
      }
    }
  }
}
node {
  name: "tinyLPR/mobile_net_v3_small/bottle_neck_1/block/pw_in/conv2d_2/Conv2D/ReadVariableOp/resource"
  op: "Const"
  attr {
    key: "dtype"
    value {
      type: DT_FLOAT
    }
  }
  attr {
    key: "value"
    value {
      tensor {
        dtype: DT_FLOAT
        tensor_shape {
          dim {
            size: 1
          }
          dim {
            size: 1
          }
          dim {
            size: 16
          }
          dim {
            size: 72
          }
        }
        tensor_content: "…"
      }
    }
  }
}
node {
  name: "tinyLPR/mobile_net_v3_small/bottle_neck_1/block/pw_in/batch_normalization_3/ReadVariableOp/resource"
  op: "Const"
  attr {
    key: "dtype"
    value {
      type: DT_FLOAT
    }
  }
  attr {
    key: "value"
    value {
      tensor {
        dtype: DT_FLOAT
        tensor_shape {
          dim {
            size: 72
          }
        }
        tensor_content: "…"
      }
    }
  }
}
node {
  name: "tinyLPR/mobile_net_v3_small/bottle_neck_1/block/pw_in/batch_normalization_3/ReadVariableOp_1/resource"
  op: "Const"
  attr {
    key: "dtype"
    value {
      type: DT_FLOAT
    }
  }
  attr {
    key: "value"
    value {
      tensor {
        dtype: DT_FLOAT
        tensor_shape {
          dim {
            size: 72
          }
        }
        tensor_content: "…"
      }
    }
  }
}
node {
  name: "tinyLPR/mobile_net_v3_small/bottle_neck_1/block/pw_in/batch_normalization_3/FusedBatchNormV3/ReadVariableOp/resource"
  op: "Const"
  attr {
    key: "dtype"
    value {
      type: DT_FLOAT
    }
  }
  attr {
    key: "value"
    value {
      tensor {
        dtype: DT_FLOAT
        tensor_shape {
          dim {
            size: 72
          }
        }
        tensor_content: "…"
      }
    }
  }
}
node {
  name: "tinyLPR/mobile_net_v3_small/bottle_neck_1/block/pw_in/batch_normalization_3/FusedBatchNormV3/ReadVariableOp_1/resource"
  op: "Const"
  attr {
    key: "dtype"
    value {
      type: DT_FLOAT
    }
  }
  attr {
    key: "value"
    value {
      tensor {
        dtype: DT_FLOAT
        tensor_shape {
          dim {
            size: 72
          }
        }
        tensor_content: "…"
      }
    }
  }
}
node {
  name: "tinyLPR/mobile_net_v3_small/bottle_neck_1/block/dw/depthwise_conv2d_1/depthwise/ReadVariableOp/resource"
  op: "Const"
  attr {
    key: "dtype"
    value {
      type: DT_FLOAT
    }
  }
  attr {
    key: "value"
    value {
      tensor {
        dtype: DT_FLOAT
        tensor_shape {
          dim {
            size: 3
          }
          dim {
            size: 3
          }
          dim {
            size: 72
          }
          dim {
            size: 1
          }
        }
        tensor_content: "…"
      }
    }
  }
}
node {
  name: "tinyLPR/mobile_net_v3_small/bottle_neck_1/block/dw/batch_normalization_4/ReadVariableOp/resource"
  op: "Const"
  attr {
    key: "dtype"
    value {
      type: DT_FLOAT
    }
  }
  attr {
    key: "value"
    value {
      tensor {
        dtype: DT_FLOAT
        tensor_shape {
          dim {
            size: 72
          }
        }
        tensor_content: "…"
      }
    }
  }
}
node {
  name: "tinyLPR/mobile_net_v3_small/bottle_neck_1/block/dw/batch_normalization_4/ReadVariableOp_1/resource"
  op: "Const"
  attr {
    key: "dtype"
    value {
      type: DT_FLOAT
    }
  }
  attr {
    key: "value"
    value {
      tensor {
        dtype: DT_FLOAT
        tensor_shape {
          dim {
            size: 72
          }
        }
        tensor_content: "…"
      }
    }
  }
}
node {
  name: "tinyLPR/mobile_net_v3_small/bottle_neck_1/block/dw/batch_normalization_4/FusedBatchNormV3/ReadVariableOp/resource"
  op: "Const"
  attr {
    key: "dtype"
    value {
      type: DT_FLOAT
    }
  }
  attr {
    key: "value"
    value {
      tensor {
        dtype: DT_FLOAT
        tensor_shape {
          dim {
            size: 72
          }
        }
        tensor_content: "…"
      }
    }
  }
}
node {
  name: "tinyLPR/mobile_net_v3_small/bottle_neck_1/block/dw/batch_normalization_4/FusedBatchNormV3/ReadVariableOp_1/resource"
  op: "Const"
  attr {
    key: "dtype"
    value {
      type: DT_FLOAT
    }
  }
  attr {
    key: "value"
    value {
      tensor {
        dtype: DT_FLOAT
        tensor_shape {
          dim {
            size: 72
          }
        }
        tensor_content: "…"
      }
    }
  }
}
node {
  name: "tinyLPR/mobile_net_v3_small/bottle_neck_1/block/pw_out/conv2d_3/Conv2D/ReadVariableOp/resource"
  op: "Const"
  attr {
    key: "dtype"
    value {
      type: DT_FLOAT
    }
  }
  attr {
    key: "value"
    value {
      tensor {
        dtype: DT_FLOAT
        tensor_shape {
          dim {
            size: 1
          }
          dim {
            size: 1
          }
          dim {
            size: 72
          }
          dim {
            size: 24
          }
        }
        tensor_content: "…"
      }
    }
  }
}
node {
  name: "tinyLPR/mobile_net_v3_small/bottle_neck_1/block/pw_out/batch_normalization_5/ReadVariableOp/resource"
  op: "Const"
  attr {
    key: "dtype"
    value {
      type: DT_FLOAT
    }
  }
  attr {
    key: "value"
    value {
      tensor {
        dtype: DT_FLOAT
        tensor_shape {
          dim {
            size: 24
          }
        }
        tensor_content: "…"
      }
    }
  }
}
node {
  name: "tinyLPR/mobile_net_v3_small/bottle_neck_1/block/pw_out/batch_normalization_5/ReadVariableOp_1/resource"
  op: "Const"
  attr {
    key: "dtype"
    value {
      type: DT_FLOAT
    }
  }
  attr {
    key: "value"
    value {
      tensor {
        dtype: DT_FLOAT
        tensor_shape {
          dim {
            size: 24
          }
        }
        tensor_content: "…"
      }
    }
  }
}
node {
  name: "tinyLPR/mobile_net_v3_small/bottle_neck_1/block/pw_out/batch_normalization_5/FusedBatchNormV3/ReadVariableOp/resource"
  op: "Const"
  attr {
    key: "dtype"
    value {
      type: DT_FLOAT
    }
  }
  attr {
    key: "value"
    value {
      tensor {
        dtype: DT_FLOAT
        tensor_shape {
          dim {
            size: 24
          }
        }
        tensor_content: "…"
      }
    }
  }
}
node {
  name: "tinyLPR/mobile_net_v3_small/bottle_neck_1/block/pw_out/batch_normalization_5/FusedBatchNormV3/ReadVariableOp_1/resource"
  op: "Const"
  attr {
    key: "dtype"
    value {
      type: DT_FLOAT
    }
  }
  attr {
    key: "value"
    value {
      tensor {
        dtype: DT_FLOAT
        tensor_shape {
          dim {
            size: 24
          }
        }
        tensor_content: "…"
      }
    }
  }
}
node {
  name: "tinyLPR/mobile_net_v3_small/bottle_neck_2/block/pw_in/conv2d_4/Conv2D/ReadVariableOp/resource"
  op: "Const"
  attr {
    key: "dtype"
    value {
      type: DT_FLOAT
    }
  }
  attr {
    key: "value"
    value {
      tensor {
        dtype: DT_FLOAT
        tensor_shape {
          dim {
            size: 1
          }
          dim {
            size: 1
          }
          dim {
            size: 24
          }
          dim {
            size: 88
          }
        }
        tensor_content: "…"
      }
    }
  }
}
node {
  name: "tinyLPR/mobile_net_v3_small/bottle_neck_2/block/pw_in/batch_normalization_6/ReadVariableOp/resource"
  op: "Const"
  attr {
    key: "dtype"
    value {
      type: DT_FLOAT
    }
  }
  attr {
    key: "value"
    value {
      tensor {
        dtype: DT_FLOAT
        tensor_shape {
          dim {
            size: 88
          }
        }
        tensor_content: "…"
      }
    }
  }
}
node {
  name: "tinyLPR/mobile_net_v3_small/bottle_neck_2/block/pw_in/batch_normalization_6/ReadVariableOp_1/resource"
  op: "Const"
  attr {
    key: "dtype"
    value {
      type: DT_FLOAT
    }
  }
  attr {
    key: "value"
    value {
      tensor {
        dtype: DT_FLOAT
        tensor_shape {
          dim {
            size: 88
          }
        }
        tensor_content: "…"
      }
    }
  }
}
node {
  name: "tinyLPR/mobile_net_v3_small/bottle_neck_2/block/pw_in/batch_normalization_6/FusedBatchNormV3/ReadVariableOp/resource"
  op: "Const"
  attr {
    key: "dtype"
    value {
      type: DT_FLOAT
    }
  }
  attr {
    key: "value"
    value {
      tensor {
        dtype: DT_FLOAT
        tensor_shape {
          dim {
            size: 88
          }
        }
        tensor_content: "…"
      }
    }
  }
}
node {
  name: "tinyLPR/mobile_net_v3_small/bottle_neck_2/block/pw_in/batch_normalization_6/FusedBatchNormV3/ReadVariableOp_1/resource"
  op: "Const"
  attr {
    key: "dtype"
    value {
      type: DT_FLOAT
    }
  }
  attr {
    key: "value"
    value {
      tensor {
        dtype: DT_FLOAT
        tensor_shape {
          dim {
            size: 88
          }
        }
        tensor_content: "…"
      }
    }
  }
}
node {
  name: "tinyLPR/mobile_net_v3_small/bottle_neck_2/block/dw/depthwise_conv2d_2/depthwise/ReadVariableOp/resource"
  op: "Const"
  attr {
    key: "dtype"
    value {
      type: DT_FLOAT
    }
  }
  attr {
    key: "value"
    value {
      tensor {
        dtype: DT_FLOAT
        tensor_shape {
          dim {
            size: 3
          }
          dim {
            size: 3
          }
          dim {
            size: 88
          }
          dim {
            size: 1
          }
        }
        tensor_content: "…"
      }
    }
  }
}
node {
  name: "tinyLPR/mobile_net_v3_small/bottle_neck_2/block/dw/batch_normalization_7/ReadVariableOp/resource"
  op: "Const"
  attr {
    key: "dtype"
    value {
      type: DT_FLOAT
    }
  }
  attr {
    key: "value"
    value {
      tensor {
        dtype: DT_FLOAT
        tensor_shape {
          dim {
            size: 88
          }
        }
        tensor_content: "…"
      }
    }
  }
}
node {
  name: "tinyLPR/mobile_net_v3_small/bottle_neck_2/block/dw/batch_normalization_7/ReadVariableOp_1/resource"
  op: "Const"
  attr {
    key: "dtype"
    value {
      type: DT_FLOAT
    }
  }
  attr {
    key: "value"
    value {
      tensor {
        dtype: DT_FLOAT
        tensor_shape {
          dim {
            size: 88
          }
        }
        tensor_content: "…"
      }
    }
  }
}
node {
  name: "tinyLPR/mobile_net_v3_small/bottle_neck_2/block/dw/batch_normalization_7/FusedBatchNormV3/ReadVariableOp/resource"
  op: "Const"
  attr {
    key: "dtype"
    value {
      type: DT_FLOAT
    }
  }
  attr {
    key: "value"
    value {
      tensor {
        dtype: DT_FLOAT
        tensor_shape {
          dim {
            size: 88
          }
        }
        tensor_content: "…"
      }
    }
  }
}
node {
  name: "tinyLPR/mobile_net_v3_small/bottle_neck_2/block/dw/batch_normalization_7/FusedBatchNormV3/ReadVariableOp_1/resource"
  op: "Const"
  attr {
    key: "dtype"
    value {
      type: DT_FLOAT
    }
  }
  attr {
    key: "value"
    value {
      tensor {
        dtype: DT_FLOAT
        tensor_shape {
          dim {
            size: 88
          }
        }
        tensor_content: "…"
      }
    }
  }
}
node {
  name: "tinyLPR/mobile_net_v3_small/bottle_neck_2/block/pw_out/conv2d_5/Conv2D/ReadVariableOp/resource"
  op: "Const"
  attr {
    key: "dtype"
    value {
      type: DT_FLOAT
    }
  }
  attr {
    key: "value"
    value {
      tensor {
        dtype: DT_FLOAT
        tensor_shape {
          dim {
            size: 1
          }
          dim {
            size: 1
          }
          dim {
            size: 88
          }
          dim {
            size: 24
          }
        }
        tensor_content: "…"
      }
    }
  }
}
node {
  name: "tinyLPR/mobile_net_v3_small/bottle_neck_2/block/pw_out/batch_normalization_8/ReadVariableOp/resource"
  op: "Const"
  attr {
    key: "dtype"
    value {
      type: DT_FLOAT
    }
  }
  attr {
    key: "value"
    value {
      tensor {
        dtype: DT_FLOAT
        tensor_shape {
          dim {
            size: 24
          }
        }
        tensor_content: "…"
      }
    }
  }
}
node {
  name: "tinyLPR/mobile_net_v3_small/bottle_neck_2/block/pw_out/batch_normalization_8/ReadVariableOp_1/resource"
  op: "Const"
  attr {
    key: "dtype"
    value {
      type: DT_FLOAT
    }
  }
  attr {
    key: "value"
    value {
      tensor {
        dtype: DT_FLOAT
        tensor_shape {
          dim {
            size: 24
          }
        }
        tensor_content: "…"
      }
    }
  }
}
node {
  name: "tinyLPR/mobile_net_v3_small/bottle_neck_2/block/pw_out/batch_normalization_8/FusedBatchNormV3/ReadVariableOp/resource"
  op: "Const"
  attr {
    key: "dtype"
    value {
      type: DT_FLOAT
    }
  }
  attr {
    key: "value"
    value {
      tensor {
        dtype: DT_FLOAT
        tensor_shape {
          dim {
            size: 24
          }
        }
        tensor_content: "…"
      }
    }
  }
}
node {
  name: "tinyLPR/mobile_net_v3_small/bottle_neck_2/block/pw_out/batch_normalization_8/FusedBatchNormV3/ReadVariableOp_1/resource"
  op: "Const"
  attr {
    key: "dtype"
    value {
      type: DT_FLOAT
    }
  }
  attr {
    key: "value"
    value {
      tensor {
        dtype: DT_FLOAT
        tensor_shape {
          dim {
            size: 24
          }
        }
        tensor_content: "…"
      }
    }
  }
}
node {
  name: "tinyLPR/c1_conv/Conv2D/ReadVariableOp/resource"
  op: "Const"
  attr {
    key: "dtype"
    value {
      type: DT_FLOAT
    }
  }
  attr {
    key: "value"
    value {
      tensor {
        dtype: DT_FLOAT
        tensor_shape {
          dim {
            size: 3
          }
          dim {
            size: 3
          }
          dim {
            size: 24
          }
          dim {
            size: 128
          }
        }
        tensor_content: "…"
      }
    }
  }
}
node {
  name: "tinyLPR/c1_conv/BiasAdd/ReadVariableOp/resource"
  op: "Const"
  attr {
    key: "dtype"
    value {
      type: DT_FLOAT
    }
  }
  attr {
    key: "value"
    value {
      tensor {
        dtype: DT_FLOAT
        tensor_shape {
          dim {
            size: 128
          }
        }
        tensor_content: "…"
      }
    }
  }
}
node {
  name: "tinyLPR/mobile_net_v3_small/bottle_neck_3/block/pw_in/conv2d_6/Conv2D/ReadVariableOp/resource"
  op: "Const"
  attr {
    key: "dtype"
    value {
      type: DT_FLOAT
    }
  }
  attr {
    key: "value"
    value {
      tensor {
        dtype: DT_FLOAT
        tensor_shape {
          dim {
            size: 1
          }
          dim {
            size: 1
          }
          dim {
            size: 24
          }
          dim {
            size: 96
          }
        }
        tensor_content: "…"
      }
    }
  }
}
node {
  name: "tinyLPR/mobile_net_v3_small/bottle_neck_3/block/pw_in/batch_normalization_9/ReadVariableOp/resource"
  op: "Const"
  attr {
    key: "dtype"
    value {
      type: DT_FLOAT
    }
  }
  attr {
    key: "value"
    value {
      tensor {
        dtype: DT_FLOAT
        tensor_shape {
          dim {
            size: 96
          }
        }
        tensor_content: "…"
      }
    }
  }
}
node {
  name: "tinyLPR/mobile_net_v3_small/bottle_neck_3/block/pw_in/batch_normalization_9/ReadVariableOp_1/resource"
  op: "Const"
  attr {
    key: "dtype"
    value {
      type: DT_FLOAT
    }
  }
  attr {
    key: "value"
    value {
      tensor {
        dtype: DT_FLOAT
        tensor_shape {
          dim {
            size: 96
          }
        }
        tensor_content: "…"
      }
    }
  }
}
node {
  name: "tinyLPR/mobile_net_v3_small/bottle_neck_3/block/pw_in/batch_normalization_9/FusedBatchNormV3/ReadVariableOp/resource"
  op: "Const"
  attr {
    key: "dtype"
    value {
      type: DT_FLOAT
    }
  }
  attr {
    key: "value"
    value {
      tensor {
        dtype: DT_FLOAT
        tensor_shape {
          dim {
            size: 96
          }
        }
        tensor_content: "…"
      }
    }
  }
}
node {
  name: "tinyLPR/mobile_net_v3_small/bottle_neck_3/block/pw_in/batch_normalization_9/FusedBatchNormV3/ReadVariableOp_1/resource"
  op: "Const"
  attr {
    key: "dtype"
    value {
      type: DT_FLOAT
    }
  }
  attr {
    key: "value"
    value {
      tensor {
        dtype: DT_FLOAT
        tensor_shape {
          dim {
            size: 96
          }
        }
        tensor_content: "…"
      }
    }
  }
}
node {
  name: "tinyLPR/mobile_net_v3_small/bottle_neck_3/block/dw/depthwise_conv2d_3/depthwise/ReadVariableOp/resource"
  op: "Const"
  attr {
    key: "dtype"
    value {
      type: DT_FLOAT
    }
  }
  attr {
    key: "value"
    value {
      tensor {
        dtype: DT_FLOAT
        tensor_shape {
          dim {
            size: 5
          }
          dim {
            size: 5
          }
          dim {
            size: 96
          }
          dim {
            size: 1
          }
        }
        tensor_content: "…"
      }
    }
  }
}
node {
  name: "tinyLPR/mobile_net_v3_small/bottle_neck_3/block/dw/batch_normalization_10/ReadVariableOp/resource"
  op: "Const"
  attr {
    key: "dtype"
    value {
      type: DT_FLOAT
    }
  }
  attr {
    key: "value"
    value {
      tensor {
        dtype: DT_FLOAT
        tensor_shape {
          dim {
            size: 96
          }
        }
        tensor_content: "…"
      }
    }
  }
}
node {
  name: "tinyLPR/mobile_net_v3_small/bottle_neck_3/block/dw/batch_normalization_10/ReadVariableOp_1/resource"
  op: "Const"
  attr {
    key: "dtype"
    value {
      type: DT_FLOAT
    }
  }
  attr {
    key: "value"
    value {
      tensor {
        dtype: DT_FLOAT
        tensor_shape {
          dim {
            size: 96
          }
        }
        tensor_content: "…"
      }
    }
  }
}
node {
  name: "tinyLPR/mobile_net_v3_small/bottle_neck_3/block/dw/batch_normalization_10/FusedBatchNormV3/ReadVariableOp/resource"
  op: "Const"
  attr {
    key: "dtype"
    value {
      type: DT_FLOAT
    }
  }
  attr {
    key: "value"
    value {
      tensor {
        dtype: DT_FLOAT
        tensor_shape {
          dim {
            size: 96
          }
        }
        tensor_content: "…"
      }
    }
  }
}
node {
  name: "tinyLPR/mobile_net_v3_small/bottle_neck_3/block/dw/batch_normalization_10/FusedBatchNormV3/ReadVariableOp_1/resource"
  op: "Const"
  attr {
    key: "dtype"
    value {
      type: DT_FLOAT
    }
  }
  attr {
    key: "value"
    value {
      tensor {
        dtype: DT_FLOAT
        tensor_shape {
          dim {
            size: 96
          }
        }
        tensor_content: "…"
      }
    }
  }
}
node {
  name: "tinyLPR/mobile_net_v3_small/bottle_neck_3/block/pw_out/conv2d_7/Conv2D/ReadVariableOp/resource"
  op: "Const"
  attr {
    key: "dtype"
    value {
      type: DT_FLOAT
    }
  }
  attr {
    key: "value"
    value {
      tensor {
        dtype: DT_FLOAT
        tensor_shape {
          dim {
            size: 1
          }
          dim {
            size: 1
          }
          dim {
            size: 96
          }
          dim {
            size: 40
          }
        }
        tensor_content: "…"
      }
    }
  }
}
node {
  name: "tinyLPR/mobile_net_v3_small/bottle_neck_3/block/pw_out/batch_normalization_11/ReadVariableOp/resource"
  op: "Const"
  attr {
    key: "dtype"
    value {
      type: DT_FLOAT
    }
  }
  attr {
    key: "value"
    value {
      tensor {
        dtype: DT_FLOAT
        tensor_shape {
          dim {
            size: 40
          }
        }
        tensor_content: "…"
      }
    }
  }
}
node {
  name: "tinyLPR/mobile_net_v3_small/bottle_neck_3/block/pw_out/batch_normalization_11/ReadVariableOp_1/resource"
  op: "Const"
  attr {
    key: "dtype"
    value {
      type: DT_FLOAT
    }
  }
  attr {
    key: "value"
    value {
      tensor {
        dtype: DT_FLOAT
        tensor_shape {
          dim {
            size: 40
          }
        }
        tensor_content: "…"
      }
    }
  }
}
node {
  name: "tinyLPR/mobile_net_v3_small/bottle_neck_3/block/pw_out/batch_normalization_11/FusedBatchNormV3/ReadVariableOp/resource"
  op: "Const"
  attr {
    key: "dtype"
    value {
      type: DT_FLOAT
    }
  }
  attr {
    key: "value"
    value {
      tensor {
        dtype: DT_FLOAT
        tensor_shape {
          dim {
            size: 40
          }
        }
        tensor_content: "…"
      }
    }
  }
}
node {
  name: "tinyLPR/mobile_net_v3_small/bottle_neck_3/block/pw_out/batch_normalization_11/FusedBatchNormV3/ReadVariableOp_1/resource"
  op: "Const"
  attr {
    key: "dtype"
    value {
      type: DT_FLOAT
    }
  }
  attr {
    key: "value"
    value {
      tensor {
        dtype: DT_FLOAT
        tensor_shape {
          dim {
            size: 40
          }
        }
        tensor_content: "…"
      }
    }
  }
}
node {
  name: "tinyLPR/mobile_net_v3_small/bottle_neck_4/block/pw_in/conv2d_8/Conv2D/ReadVariableOp/resource"
  op: "Const"
  attr {
    key: "dtype"
    value {
      type: DT_FLOAT
    }
  }
  attr {
    key: "value"
    value {
      tensor {
        dtype: DT_FLOAT
        tensor_shape {
          dim {
            size: 1
          }
          dim {
            size: 1
          }
          dim {
            size: 40
          }
          dim {
            size: 240
          }
        }
        tensor_content: "…"
      }
    }
  }
}
node {
  name: "tinyLPR/mobile_net_v3_small/bottle_neck_4/block/pw_in/batch_normalization_12/ReadVariableOp/resource"
  op: "Const"
  attr {
    key: "dtype"
    value {
      type: DT_FLOAT
    }
  }
  attr {
    key: "value"
    value {
      tensor {
        dtype: DT_FLOAT
        tensor_shape {
          dim {
            size: 240
          }
        }
        tensor_content: "…"
      }
    }
  }
}
node {
  name: "tinyLPR/mobile_net_v3_small/bottle_neck_4/block/pw_in/batch_normalization_12/ReadVariableOp_1/resource"
  op: "Const"
  attr {
    key: "dtype"
    value {
      type: DT_FLOAT
    }
  }
  attr {
    key: "value"
    value {
      tensor {
        dtype: DT_FLOAT
        tensor_shape {
          dim {
            size: 240
          }
        }
        tensor_content: "…"
      }
    }
  }
}
node {
  name: "tinyLPR/mobile_net_v3_small/bottle_neck_4/block/pw_in/batch_normalization_12/FusedBatchNormV3/ReadVariableOp/resource"
  op: "Const"
  attr {
    key: "dtype"
    value {
      type: DT_FLOAT
    }
  }
  attr {
    key: "value"
    value {
      tensor {
        dtype: DT_FLOAT
        tensor_shape {
          dim {
            size: 240
          }
        }
        tensor_content: "…"
      }
    }
  }
}
node {
  name: "tinyLPR/mobile_net_v3_small/bottle_neck_4/block/pw_in/batch_normalization_12/FusedBatchNormV3/ReadVariableOp_1/resource"
  op: "Const"
  attr {
    key: "dtype"
    value {
      type: DT_FLOAT
    }
  }
  attr {
    key: "value"
    value {
      tensor {
        dtype: DT_FLOAT
        tensor_shape {
          dim {
            size: 240
          }
        }
        tensor_content: "…"
      }
    }
  }
}
node {
  name: "tinyLPR/mobile_net_v3_small/bottle_neck_4/block/dw/depthwise_conv2d_4/depthwise/ReadVariableOp/resource"
  op: "Const"
  attr {
    key: "dtype"
    value {
      type: DT_FLOAT
    }
  }
  attr {
    key: "value"
    value {
      tensor {
        dtype: DT_FLOAT
        tensor_shape {
          dim {
            size: 5
          }
          dim {
            size: 5
          }
          dim {
            size: 240
          }
          dim {
            size: 1
          }
        }
        tensor_content: "…"
      }
    }
  }
}
node {
  name: "tinyLPR/mobile_net_v3_small/bottle_neck_4/block/dw/batch_normalization_13/ReadVariableOp/resource"
  op: "Const"
  attr {
    key: "dtype"
    value {
      type: DT_FLOAT
    }
  }
  attr {
    key: "value"
    value {
      tensor {
        dtype: DT_FLOAT
        tensor_shape {
          dim {
            size: 240
          }
        }
        tensor_content: "…"
      }
    }
  }
}
node {
  name: "tinyLPR/mobile_net_v3_small/bottle_neck_4/block/dw/batch_normalization_13/ReadVariableOp_1/resource"
  op: "Const"
  attr {
    key: "dtype"
    value {
      type: DT_FLOAT
    }
  }
  attr {
    key: "value"
    value {
      tensor {
        dtype: DT_FLOAT
        tensor_shape {
          dim {
            size: 240
          }
        }
        tensor_content: "…"
      }
    }
  }
}
node {
  name: "tinyLPR/mobile_net_v3_small/bottle_neck_4/block/dw/batch_normalization_13/FusedBatchNormV3/ReadVariableOp/resource"
  op: "Const"
  attr {
    key: "dtype"
    value {
      type: DT_FLOAT
    }
  }
  attr {
    key: "value"
    value {
      tensor {
        dtype: DT_FLOAT
        tensor_shape {
          dim {
            size: 240
          }
        }
        tensor_content: "…"
      }
    }
  }
}
node {
  name: "tinyLPR/mobile_net_v3_small/bottle_neck_4/block/dw/batch_normalization_13/FusedBatchNormV3/ReadVariableOp_1/resource"
  op: "Const"
  attr {
    key: "dtype"
    value {
      type: DT_FLOAT
    }
  }
  attr {
    key: "value"
    value {
      tensor {
        dtype: DT_FLOAT
        tensor_shape {
          dim {
            size: 240
          }
        }
        tensor_content: "…"
      }
    }
  }
}
node {
  name: "tinyLPR/mobile_net_v3_small/bottle_neck_4/block/pw_out/conv2d_9/Conv2D/ReadVariableOp/resource"
  op: "Const"
  attr {
    key: "dtype"
    value {
      type: DT_FLOAT
    }
  }
  attr {
    key: "value"
    value {
      tensor {
        dtype: DT_FLOAT
        tensor_shape {
          dim {
            size: 1
          }
          dim {
            size: 1
          }
          dim {
            size: 240
          }
          dim {
            size: 40
          }
        }
        tensor_content: "…"
      }
    }
  }
}
node {
  name: "tinyLPR/mobile_net_v3_small/bottle_neck_4/block/pw_out/batch_normalization_14/ReadVariableOp/resource"
  op: "Const"
  attr {
    key: "dtype"
    value {
      type: DT_FLOAT
    }
  }
  attr {
    key: "value"
    value {
      tensor {
        dtype: DT_FLOAT
        tensor_shape {
          dim {
            size: 40
          }
        }
        tensor_content: "…"
      }
    }
  }
}
node {
  name: "tinyLPR/mobile_net_v3_small/bottle_neck_4/block/pw_out/batch_normalization_14/ReadVariableOp_1/resource"
  op: "Const"
  attr {
    key: "dtype"
    value {
      type: DT_FLOAT
    }
  }
  attr {
    key: "value"
    value {
      tensor {
        dtype: DT_FLOAT
        tensor_shape {
          dim {
            size: 40
          }
        }
        tensor_content: "…"
      }
    }
  }
}
node {
  name: "tinyLPR/mobile_net_v3_small/bottle_neck_4/block/pw_out/batch_normalization_14/FusedBatchNormV3/ReadVariableOp/resource"
  op: "Const"
  attr {
    key: "dtype"
    value {
      type: DT_FLOAT
    }
  }
  attr {
    key: "value"
    value {
      tensor {
        dtype: DT_FLOAT
        tensor_shape {
          dim {
            size: 40
          }
        }
        tensor_content: "…"
      }
    }
  }
}
node {
  name: "tinyLPR/mobile_net_v3_small/bottle_neck_4/block/pw_out/batch_normalization_14/FusedBatchNormV3/ReadVariableOp_1/resource"
  op: "Const"
  attr {
    key: "dtype"
    value {
      type: DT_FLOAT
    }
  }
  attr {
    key: "value"
    value {
      tensor {
        dtype: DT_FLOAT
        tensor_shape {
          dim {
            size: 40
          }
        }
        tensor_content: "…"
      }
    }
  }
}
node {
  name: "tinyLPR/mobile_net_v3_small/bottle_neck_5/block/pw_in/conv2d_10/Conv2D/ReadVariableOp/resource"
  op: "Const"
  attr {
    key: "dtype"
    value {
      type: DT_FLOAT
    }
  }
  attr {
    key: "value"
    value {
      tensor {
        dtype: DT_FLOAT
        tensor_shape {
          dim {
            size: 1
          }
          dim {
            size: 1
          }
          dim {
            size: 40
          }
          dim {
            size: 240
          }
        }
        tensor_content: "…"
      }
    }
  }
}
node {
  name: "tinyLPR/mobile_net_v3_small/bottle_neck_5/block/pw_in/batch_normalization_15/ReadVariableOp/resource"
  op: "Const"
  attr {
    key: "dtype"
    value {
      type: DT_FLOAT
    }
  }
  attr {
    key: "value"
    value {
      tensor {
        dtype: DT_FLOAT
        tensor_shape {
          dim {
            size: 240
          }
        }
        tensor_content: "…"
      }
    }
  }
}
node {
  name: "tinyLPR/mobile_net_v3_small/bottle_neck_5/block/pw_in/batch_normalization_15/ReadVariableOp_1/resource"
  op: "Const"
  attr {
    key: "dtype"
    value {
      type: DT_FLOAT
    }
  }
  attr {
    key: "value"
    value {
      tensor {
        dtype: DT_FLOAT
        tensor_shape {
          dim {
            size: 240
          }
        }
        tensor_content: "…"
      }
    }
  }
}
node {
  name: "tinyLPR/mobile_net_v3_small/bottle_neck_5/block/pw_in/batch_normalization_15/FusedBatchNormV3/ReadVariableOp/resource"
  op: "Const"
  attr {
    key: "dtype"
    value {
      type: DT_FLOAT
    }
  }
  attr {
    key: "value"
    value {
      tensor {
        dtype: DT_FLOAT
        tensor_shape {
          dim {
            size: 240
          }
        }
        tensor_content: "…"
      }
    }
  }
}
node {
  name: "tinyLPR/mobile_net_v3_small/bottle_neck_5/block/pw_in/batch_normalization_15/FusedBatchNormV3/ReadVariableOp_1/resource"
  op: "Const"
  attr {
    key: "dtype"
    value {
      type: DT_FLOAT
    }
  }
  attr {
    key: "value"
    value {
      tensor {
        dtype: DT_FLOAT
        tensor_shape {
          dim {
            size: 240
          }
        }
        tensor_content: "…"
      }
    }
  }
}
node {
  name: "tinyLPR/mobile_net_v3_small/bottle_neck_5/block/dw/depthwise_conv2d_5/depthwise/ReadVariableOp/resource"
  op: "Const"
  attr {
    key: "dtype"
    value {
      type: DT_FLOAT
    }
  }
  attr {
    key: "value"
    value {
      tensor {
        dtype: DT_FLOAT
        tensor_shape {
          dim {
            size: 5
          }
          dim {
            size: 5
          }
          dim {
            size: 240
          }
          dim {
            size: 1
          }
        }
        tensor_content: "…"
      }
    }
  }
}
node {
  name: "tinyLPR/mobile_net_v3_small/bottle_neck_5/block/dw/batch_normalization_16/ReadVariableOp/resource"
  op: "Const"
  attr {
    key: "dtype"
    value {
      type: DT_FLOAT
    }
  }
  attr {
    key: "value"
    value {
      tensor {
        dtype: DT_FLOAT
        tensor_shape {
          dim {
            size: 240
          }
        }
        tensor_content: "…"
      }
    }
  }
}
node {
  name: "tinyLPR/mobile_net_v3_small/bottle_neck_5/block/dw/batch_normalization_16/ReadVariableOp_1/resource"
  op: "Const"
  attr {
    key: "dtype"
    value {
      type: DT_FLOAT
    }
  }
  attr {
    key: "value"
    value {
      tensor {
        dtype: DT_FLOAT
        tensor_shape {
          dim {
            size: 240
          }
        }
        tensor_content: "…"
      }
    }
  }
}
node {
  name: "tinyLPR/mobile_net_v3_small/bottle_neck_5/block/dw/batch_normalization_16/FusedBatchNormV3/ReadVariableOp/resource"
  op: "Const"
  attr {
    key: "dtype"
    value {
      type: DT_FLOAT
    }
  }
  attr {
    key: "value"
    value {
      tensor {
        dtype: DT_FLOAT
        tensor_shape {
          dim {
            size: 240
          }
        }
        tensor_content: "…"
      }
    }
  }
}
node {
  name: "tinyLPR/mobile_net_v3_small/bottle_neck_5/block/dw/batch_normalization_16/FusedBatchNormV3/ReadVariableOp_1/resource"
  op: "Const"
  attr {
    key: "dtype"
    value {
      type: DT_FLOAT
    }
  }
  attr {
    key: "value"
    value {
      tensor {
        dtype: DT_FLOAT
        tensor_shape {
          dim {
            size: 240
          }
        }
        tensor_content: "…"
      }
    }
  }
}
node {
  name: "tinyLPR/mobile_net_v3_small/bottle_neck_5/block/pw_out/conv2d_11/Conv2D/ReadVariableOp/resource"
  op: "Const"
  attr {
    key: "dtype"
    value {
      type: DT_FLOAT
    }
  }
  attr {
    key: "value"
    value {
      tensor {
        dtype: DT_FLOAT
        tensor_shape {
          dim {
            size: 1
          }
          dim {
            size: 1
          }
          dim {
            size: 240
          }
          dim {
            size: 40
          }
        }
        tensor_content: "…"
      }
    }
  }
}
node {
  name: "tinyLPR/mobile_net_v3_small/bottle_neck_5/block/pw_out/batch_normalization_17/ReadVariableOp/resource"
  op: "Const"
  attr {
    key: "dtype"
    value {
      type: DT_FLOAT
    }
  }
  attr {
    key: "value"
    value {
      tensor {
        dtype: DT_FLOAT
        tensor_shape {
          dim {
            size: 40
          }
        }
        tensor_content: "…"
      }
    }
  }
}
node {
  name: "tinyLPR/mobile_net_v3_small/bottle_neck_5/block/pw_out/batch_normalization_17/ReadVariableOp_1/resource"
  op: "Const"
  attr {
    key: "dtype"
    value {
      type: DT_FLOAT
    }
  }
  attr {
    key: "value"
    value {
      tensor {
        dtype: DT_FLOAT
        tensor_shape {
          dim {
            size: 40
          }
        }
        tensor_content: "…"
      }
    }
  }
}
node {
  name: "tinyLPR/mobile_net_v3_small/bottle_neck_5/block/pw_out/batch_normalization_17/FusedBatchNormV3/ReadVariableOp/resource"
  op: "Const"
  attr {
    key: "dtype"
    value {
      type: DT_FLOAT
    }
  }
  attr {
    key: "value"
    value {
      tensor {
        dtype: DT_FLOAT
        tensor_shape {
          dim {
            size: 40
          }
        }
        tensor_content: "…"
      }
    }
  }
}
node {
  name: "tinyLPR/mobile_net_v3_small/bottle_neck_5/block/pw_out/batch_normalization_17/FusedBatchNormV3/ReadVariableOp_1/resource"
  op: "Const"
  attr {
    key: "dtype"
    value {
      type: DT_FLOAT
    }
  }
  attr {
    key: "value"
    value {
      tensor {
        dtype: DT_FLOAT
        tensor_shape {
          dim {
            size: 40
          }
        }
        tensor_content: "…"
      }
    }
  }
}
node {
  name: "tinyLPR/mobile_net_v3_small/bottle_neck_6/block/pw_in/conv2d_12/Conv2D/ReadVariableOp/resource"
  op: "Const"
  attr {
    key: "dtype"
    value {
      type: DT_FLOAT
    }
  }
  attr {
    key: "value"
    value {
      tensor {
        dtype: DT_FLOAT
        tensor_shape {
          dim {
            size: 1
          }
          dim {
            size: 1
          }
          dim {
            size: 40
          }
          dim {
            size: 120
          }
        }
        tensor_content: "…"
      }
    }
  }
}
node {
  name: "tinyLPR/mobile_net_v3_small/bottle_neck_6/block/pw_in/batch_normalization_18/ReadVariableOp/resource"
  op: "Const"
  attr {
    key: "dtype"
    value {
      type: DT_FLOAT
    }
  }
  attr {
    key: "value"
    value {
      tensor {
        dtype: DT_FLOAT
        tensor_shape {
          dim {
            size: 120
          }
        }
        tensor_content: "…"
      }
    }
  }
}
node {
  name: "tinyLPR/mobile_net_v3_small/bottle_neck_6/block/pw_in/batch_normalization_18/ReadVariableOp_1/resource"
  op: "Const"
  attr {
    key: "dtype"
    value {
      type: DT_FLOAT
    }
  }
  attr {
    key: "value"
    value {
      tensor {
        dtype: DT_FLOAT
        tensor_shape {
          dim {
            size: 120
          }
        }
        tensor_content: "…"
      }
    }
  }
}
node {
  name: "tinyLPR/mobile_net_v3_small/bottle_neck_6/block/pw_in/batch_normalization_18/FusedBatchNormV3/ReadVariableOp/resource"
  op: "Const"
  attr {
    key: "dtype"
    value {
      type: DT_FLOAT
    }
  }
  attr {
    key: "value"
    value {
      tensor {
        dtype: DT_FLOAT
        tensor_shape {
          dim {
            size: 120
          }
        }
        tensor_content: "…"
      }
    }
  }
}
node {
  name: "tinyLPR/mobile_net_v3_small/bottle_neck_6/block/pw_in/batch_normalization_18/FusedBatchNormV3/ReadVariableOp_1/resource"
  op: "Const"
  attr {
    key: "dtype"
    value {
      type: DT_FLOAT
    }
  }
  attr {
    key: "value"
    value {
      tensor {
        dtype: DT_FLOAT
        tensor_shape {
          dim {
            size: 120
          }
        }
        tensor_content: "…"
      }
    }
  }
}
node {
  name: "tinyLPR/mobile_net_v3_small/bottle_neck_6/block/dw/depthwise_conv2d_6/depthwise/ReadVariableOp/resource"
  op: "Const"
  attr {
    key: "dtype"
    value {
      type: DT_FLOAT
    }
  }
  attr {
    key: "value"
    value {
      tensor {
        dtype: DT_FLOAT
        tensor_shape {
          dim {
            size: 5
          }
          dim {
            size: 5
          }
          dim {
            size: 120
          }
          dim {
            size: 1
          }
        }
        tensor_content: "…"
      }
    }
  }
}
node {
  name: "tinyLPR/mobile_net_v3_small/bottle_neck_6/block/dw/batch_normalization_19/ReadVariableOp/resource"
  op: "Const"
  attr {
    key: "dtype"
    value {
      type: DT_FLOAT
    }
  }
  attr {
    key: "value"
    value {
      tensor {
        dtype: DT_FLOAT
        tensor_shape {
          dim {
            size: 120
          }
        }
        tensor_content: "…"
      }
    }
  }
}
node {
  name: "tinyLPR/mobile_net_v3_small/bottle_neck_6/block/dw/batch_normalization_19/ReadVariableOp_1/resource"
  op: "Const"
  attr {
    key: "dtype"
    value {
      type: DT_FLOAT
    }
  }
  attr {
    key: "value"
    value {
      tensor {
        dtype: DT_FLOAT
        tensor_shape {
          dim {
            size: 120
          }
        }
        tensor_content: "…"
      }
    }
  }
}
node {
  name: "tinyLPR/mobile_net_v3_small/bottle_neck_6/block/dw/batch_normalization_19/FusedBatchNormV3/ReadVariableOp/resource"
  op: "Const"
  attr {
    key: "dtype"
    value {
      type: DT_FLOAT
    }
  }
  attr {
    key: "value"
    value {
      tensor {
        dtype: DT_FLOAT
        tensor_shape {
          dim {
            size: 120
          }
        }
        tensor_content: "…"
      }
    }
  }
}
node {
  name: "tinyLPR/mobile_net_v3_small/bottle_neck_6/block/dw/batch_normalization_19/FusedBatchNormV3/ReadVariableOp_1/resource"
  op: "Const"
  attr {
    key: "dtype"
    value {
      type: DT_FLOAT
    }
  }
  attr {
    key: "value"
    value {
      tensor {
        dtype: DT_FLOAT
        tensor_shape {
          dim {
            size: 120
          }
        }
        tensor_content: "…"
      }
    }
  }
}
node {
  name: "tinyLPR/mobile_net_v3_small/bottle_neck_6/block/pw_out/conv2d_13/Conv2D/ReadVariableOp/resource"
  op: "Const"
  attr {
    key: "dtype"
    value {
      type: DT_FLOAT
    }
  }
  attr {
    key: "value"
    value {
      tensor {
        dtype: DT_FLOAT
        tensor_shape {
          dim {
            size: 1
          }
          dim {
            size: 1
          }
          dim {
            size: 120
          }
          dim {
            size: 48
          }
        }
        tensor_content: "…"
      }
    }
  }
}
node {
  name: "tinyLPR/mobile_net_v3_small/bottle_neck_6/block/pw_out/batch_normalization_20/ReadVariableOp/resource"
  op: "Const"
  attr {
    key: "dtype"
    value {
      type: DT_FLOAT
    }
  }
  attr {
    key: "value"
    value {
      tensor {
        dtype: DT_FLOAT
        tensor_shape {
          dim {
            size: 48
          }
        }
        tensor_content: "…"
      }
    }
  }
}
node {
  name: "tinyLPR/mobile_net_v3_small/bottle_neck_6/block/pw_out/batch_normalization_20/ReadVariableOp_1/resource"
  op: "Const"
  attr {
    key: "dtype"
    value {
      type: DT_FLOAT
    }
  }
  attr {
    key: "value"
    value {
      tensor {
        dtype: DT_FLOAT
        tensor_shape {
          dim {
            size: 48
          }
        }
        tensor_content: "…"
      }
    }
  }
}
node {
  name: "tinyLPR/mobile_net_v3_small/bottle_neck_6/block/pw_out/batch_normalization_20/FusedBatchNormV3/ReadVariableOp/resource"
  op: "Const"
  attr {
    key: "dtype"
    value {
      type: DT_FLOAT
    }
  }
  attr {
    key: "value"
    value {
      tensor {
        dtype: DT_FLOAT
        tensor_shape {
          dim {
            size: 48
          }
        }
        tensor_content: "…"
      }
    }
  }
}
node {
  name: "tinyLPR/mobile_net_v3_small/bottle_neck_6/block/pw_out/batch_normalization_20/FusedBatchNormV3/ReadVariableOp_1/resource"
  op: "Const"
  attr {
    key: "dtype"
    value {
      type: DT_FLOAT
    }
  }
  attr {
    key: "value"
    value {
      tensor {
        dtype: DT_FLOAT
        tensor_shape {
          dim {
            size: 48
          }
        }
        tensor_content: "…"
      }
    }
  }
}
node {
  name: "tinyLPR/mobile_net_v3_small/bottle_neck_7/block/pw_in/conv2d_14/Conv2D/ReadVariableOp/resource"
  op: "Const"
  attr {
    key: "dtype"
    value {
      type: DT_FLOAT
    }
  }
  attr {
    key: "value"
    value {
      tensor {
        dtype: DT_FLOAT
        tensor_shape {
          dim {
            size: 1
          }
          dim {
            size: 1
          }
          dim {
            size: 48
          }
          dim {
            size: 144
          }
        }
        tensor_content: "…"
      }
    }
  }
}
node {
  name: "tinyLPR/mobile_net_v3_small/bottle_neck_7/block/pw_in/batch_normalization_21/ReadVariableOp/resource"
  op: "Const"
  attr {
    key: "dtype"
    value {
      type: DT_FLOAT
    }
  }
  attr {
    key: "value"
    value {
      tensor {
        dtype: DT_FLOAT
        tensor_shape {
          dim {
            size: 144
          }
        }
        tensor_content: "…"
      }
    }
  }
}
node {
  name: "tinyLPR/mobile_net_v3_small/bottle_neck_7/block/pw_in/batch_normalization_21/ReadVariableOp_1/resource"
  op: "Const"
  attr {
    key: "dtype"
    value {
      type: DT_FLOAT
    }
  }
  attr {
    key: "value"
    value {
      tensor {
        dtype: DT_FLOAT
        tensor_shape {
          dim {
            size: 144
          }
        }
        tensor_content: "…"
      }
    }
  }
}
node {
  name: "tinyLPR/mobile_net_v3_small/bottle_neck_7/block/pw_in/batch_normalization_21/FusedBatchNormV3/ReadVariableOp/resource"
  op: "Const"
  attr {
    key: "dtype"
    value {
      type: DT_FLOAT
    }
  }
  attr {
    key: "value"
    value {
      tensor {
        dtype: DT_FLOAT
        tensor_shape {
          dim {
            size: 144
          }
        }
        tensor_content: "…"
      }
    }
  }
}
node {
  name: "tinyLPR/mobile_net_v3_small/bottle_neck_7/block/pw_in/batch_normalization_21/FusedBatchNormV3/ReadVariableOp_1/resource"
  op: "Const"
  attr {
    key: "dtype"
    value {
      type: DT_FLOAT
    }
  }
  attr {
    key: "value"
    value {
      tensor {
        dtype: DT_FLOAT
        tensor_shape {
          dim {
            size: 144
          }
        }
        tensor_content: "…"
      }
    }
  }
}
node {
  name: "tinyLPR/mobile_net_v3_small/bottle_neck_7/block/dw/depthwise_conv2d_7/depthwise/ReadVariableOp/resource"
  op: "Const"
  attr {
    key: "dtype"
    value {
      type: DT_FLOAT
    }
  }
  attr {
    key: "value"
    value {
      tensor {
        dtype: DT_FLOAT
        tensor_shape {
          dim {
            size: 5
          }
          dim {
            size: 5
          }
          dim {
            size: 144
          }
          dim {
            size: 1
          }
        }
        tensor_content: "…"
      }
    }
  }
}
node {
  name: "tinyLPR/mobile_net_v3_small/bottle_neck_7/block/dw/batch_normalization_22/ReadVariableOp/resource"
  op: "Const"
  attr {
    key: "dtype"
    value {
      type: DT_FLOAT
    }
  }
  attr {
    key: "value"
    value {
      tensor {
        dtype: DT_FLOAT
        tensor_shape {
          dim {
            size: 144
          }
        }
        tensor_content: "…"
      }
    }
  }
}
node {
  name: "tinyLPR/mobile_net_v3_small/bottle_neck_7/block/dw/batch_normalization_22/ReadVariableOp_1/resource"
  op: "Const"
  attr {
    key: "dtype"
    value {
      type: DT_FLOAT
    }
  }
  attr {
    key: "value"
    value {
      tensor {
        dtype: DT_FLOAT
        tensor_shape {
          dim {
            size: 144
          }
        }
        tensor_content: "…"
      }
    }
  }
}
node {
  name: "tinyLPR/mobile_net_v3_small/bottle_neck_7/block/dw/batch_normalization_22/FusedBatchNormV3/ReadVariableOp/resource"
  op: "Const"
  attr {
    key: "dtype"
    value {
      type: DT_FLOAT
    }
  }
  attr {
    key: "value"
    value {
      tensor {
        dtype: DT_FLOAT
        tensor_shape {
          dim {
            size: 144
          }
        }
        tensor_content: "…"
      }
    }
  }
}
node {
  name: "tinyLPR/mobile_net_v3_small/bottle_neck_7/block/dw/batch_normalization_22/FusedBatchNormV3/ReadVariableOp_1/resource"
  op: "Const"
  attr {
    key: "dtype"
    value {
      type: DT_FLOAT
    }
  }
  attr {
    key: "value"
    value {
      tensor {
        dtype: DT_FLOAT
        tensor_shape {
          dim {
            size: 144
          }
        }
        tensor_content: "…"
      }
    }
  }
}
node {
  name: "tinyLPR/mobile_net_v3_small/bottle_neck_7/block/pw_out/conv2d_15/Conv2D/ReadVariableOp/resource"
  op: "Const"
  attr {
    key: "dtype"
    value {
      type: DT_FLOAT
    }
  }
  attr {
    key: "value"
    value {
      tensor {
        dtype: DT_FLOAT
        tensor_shape {
          dim {
            size: 1
          }
          dim {
            size: 1
          }
          dim {
            size: 144
          }
          dim {
            size: 48
          }
        }
        tensor_content: "…"
      }
    }
  }
}
node {
  name: "tinyLPR/mobile_net_v3_small/bottle_neck_7/block/pw_out/batch_normalization_23/ReadVariableOp/resource"
  op: "Const"
  attr {
    key: "dtype"
    value {
      type: DT_FLOAT
    }
  }
  attr {
    key: "value"
    value {
      tensor {
        dtype: DT_FLOAT
        tensor_shape {
          dim {
            size: 48
          }
        }
        tensor_content: "…"
      }
    }
  }
}
node {
  name: "tinyLPR/mobile_net_v3_small/bottle_neck_7/block/pw_out/batch_normalization_23/ReadVariableOp_1/resource"
  op: "Const"
  attr {
    key: "dtype"
    value {
      type: DT_FLOAT
    }
  }
  attr {
    key: "value"
    value {
      tensor {
        dtype: DT_FLOAT
        tensor_shape {
          dim {
            size: 48
          }
        }
        tensor_content: "…"
      }
    }
  }
}
node {
  name: "tinyLPR/mobile_net_v3_small/bottle_neck_7/block/pw_out/batch_normalization_23/FusedBatchNormV3/ReadVariableOp/resource"
  op: "Const"
  attr {
    key: "dtype"
    value {
      type: DT_FLOAT
    }
  }
  attr {
    key: "value"
    value {
      tensor {
        dtype: DT_FLOAT
        tensor_shape {
          dim {
            size: 48
          }
        }
        tensor_content: "…"
      }
    }
  }
}
node {
  name: "tinyLPR/mobile_net_v3_small/bottle_neck_7/block/pw_out/batch_normalization_23/FusedBatchNormV3/ReadVariableOp_1/resource"
  op: "Const"
  attr {
    key: "dtype"
    value {
      type: DT_FLOAT
    }
  }
  attr {
    key: "value"
    value {
      tensor {
        dtype: DT_FLOAT
        tensor_shape {
          dim {
            size: 48
          }
        }
        tensor_content: "…"
      }
    }
  }
}
node {
  name: "tinyLPR/mobile_net_v3_small/bottle_neck_8/block/pw_in/conv2d_16/Conv2D/ReadVariableOp/resource"
  op: "Const"
  attr {
    key: "dtype"
    value {
      type: DT_FLOAT
    }
  }
  attr {
    key: "value"
    value {
      tensor {
        dtype: DT_FLOAT
        tensor_shape {
          dim {
            size: 1
          }
          dim {
            size: 1
          }
          dim {
            size: 48
          }
          dim {
            size: 288
          }
        }
        tensor_content: "…"
      }
    }
  }
}
node {
  name: "tinyLPR/mobile_net_v3_small/bottle_neck_8/block/pw_in/batch_normalization_24/ReadVariableOp/resource"
  op: "Const"
  attr {
    key: "dtype"
    value {
      type: DT_FLOAT
    }
  }
  attr {
    key: "value"
    value {
      tensor {
        dtype: DT_FLOAT
        tensor_shape {
          dim {
            size: 288
          }
        }
        tensor_content: "…"
      }
    }
  }
}
node {
  name: "tinyLPR/mobile_net_v3_small/bottle_neck_8/block/pw_in/batch_normalization_24/ReadVariableOp_1/resource"
  op: "Const"
  attr {
    key: "dtype"
    value {
      type: DT_FLOAT
    }
  }
  attr {
    key: "value"
    value {
      tensor {
        dtype: DT_FLOAT
        tensor_shape {
          dim {
            size: 288
          }
        }
        tensor_content: "…"
      }
    }
  }
}
node {
  name: "tinyLPR/mobile_net_v3_small/bottle_neck_8/block/pw_in/batch_normalization_24/FusedBatchNormV3/ReadVariableOp/resource"
  op: "Const"
  attr {
    key: "dtype"
    value {
      type: DT_FLOAT
    }
  }
  attr {
    key: "value"
    value {
      tensor {
        dtype: DT_FLOAT
        tensor_shape {
          dim {
            size: 288
          }
        }
        tensor_content: "…"
      }
    }
  }
}
node {
  name: "tinyLPR/mobile_net_v3_small/bottle_neck_8/block/pw_in/batch_normalization_24/FusedBatchNormV3/ReadVariableOp_1/resource"
  op: "Const"
  attr {
    key: "dtype"
    value {
      type: DT_FLOAT
    }
  }
  attr {
    key: "value"
    value {
      tensor {
        dtype: DT_FLOAT
        tensor_shape {
          dim {
            size: 288
          }
        }
        tensor_content: "…"
      }
    }
  }
}
node {
  name: "tinyLPR/mobile_net_v3_small/bottle_neck_8/block/dw/depthwise_conv2d_8/depthwise/ReadVariableOp/resource"
  op: "Const"
  attr {
    key: "dtype"
    value {
      type: DT_FLOAT
    }
  }
  attr {
    key: "value"
    value {
      tensor {
        dtype: DT_FLOAT
        tensor_shape {
          dim {
            size: 5
          }
          dim {
            size: 5
          }
          dim {
            size: 288
          }
          dim {
            size: 1
          }
        }
        tensor_content: "…"
      }
    }
  }
}
node {
  name: "tinyLPR/mobile_net_v3_small/bottle_neck_8/block/dw/batch_normalization_25/ReadVariableOp/resource"
  op: "Const"
  attr {
    key: "dtype"
    value {
      type: DT_FLOAT
    }
  }
  attr {
    key: "value"
    value {
      tensor {
        dtype: DT_FLOAT
        tensor_shape {
          dim {
            size: 288
          }
        }
        tensor_content: "…"
      }
    }
  }
}
node {
  name: "tinyLPR/mobile_net_v3_small/bottle_neck_8/block/dw/batch_normalization_25/ReadVariableOp_1/resource"
  op: "Const"
  attr {
    key: "dtype"
    value {
      type: DT_FLOAT
    }
  }
  attr {
    key: "value"
    value {
      tensor {
        dtype: DT_FLOAT
        tensor_shape {
          dim {
            size: 288
          }
        }
        tensor_content: "…"
      }
    }
  }
}
node {
  name: "tinyLPR/mobile_net_v3_small/bottle_neck_8/block/dw/batch_normalization_25/FusedBatchNormV3/ReadVariableOp/resource"
  op: "Const"
  attr {
    key: "dtype"
    value {
      type: DT_FLOAT
    }
  }
  attr {
    key: "value"
    value {
      tensor {
        dtype: DT_FLOAT
        tensor_shape {
          dim {
            size: 288
          }
        }
        tensor_content: "…"
      }
    }
  }
}
node {
  name: "tinyLPR/mobile_net_v3_small/bottle_neck_8/block/dw/batch_normalization_25/FusedBatchNormV3/ReadVariableOp_1/resource"
  op: "Const"
  attr {
    key: "dtype"
    value {
      type: DT_FLOAT
    }
  }
  attr {
    key: "value"
    value {
      tensor {
        dtype: DT_FLOAT
        tensor_shape {
          dim {
            size: 288
          }
        }
        tensor_content: "…"
      }
    }
  }
}
node {
  name: "tinyLPR/mobile_net_v3_small/bottle_neck_8/block/pw_out/conv2d_17/Conv2D/ReadVariableOp/resource"
  op: "Const"
  attr {
    key: "dtype"
    value {
      type: DT_FLOAT
    }
  }
  attr {
    key: "value"
    value {
      tensor {
        dtype: DT_FLOAT
        tensor_shape {
          dim {
            size: 1
          }
          dim {
            size: 1
          }
          dim {
            size: 288
          }
          dim {
            size: 96
          }
        }
        tensor_content: "…"
      }
    }
  }
}
node {
  name: "tinyLPR/mobile_net_v3_small/bottle_neck_8/block/pw_out/batch_normalization_26/ReadVariableOp/resource"
  op: "Const"
  attr {
    key: "dtype"
    value {
      type: DT_FLOAT
    }
  }
  attr {
    key: "value"
    value {
      tensor {
        dtype: DT_FLOAT
        tensor_shape {
          dim {
            size: 96
          }
        }
        tensor_content: "…"
      }
    }
  }
}
node {
  name: "tinyLPR/mobile_net_v3_small/bottle_neck_8/block/pw_out/batch_normalization_26/ReadVariableOp_1/resource"
  op: "Const"
  attr {
    key: "dtype"
    value {
      type: DT_FLOAT
    }
  }
  attr {
    key: "value"
    value {
      tensor {
        dtype: DT_FLOAT
        tensor_shape {
          dim {
            size: 96
          }
        }
        tensor_content: "…"
      }
    }
  }
}
node {
  name: "tinyLPR/mobile_net_v3_small/bottle_neck_8/block/pw_out/batch_normalization_26/FusedBatchNormV3/ReadVariableOp/resource"
  op: "Const"
  attr {
    key: "dtype"
    value {
      type: DT_FLOAT
    }
  }
  attr {
    key: "value"
    value {
      tensor {
        dtype: DT_FLOAT
        tensor_shape {
          dim {
            size: 96
          }
        }
        tensor_content: "…"
      }
    }
  }
}
node {
  name: "tinyLPR/mobile_net_v3_small/bottle_neck_8/block/pw_out/batch_normalization_26/FusedBatchNormV3/ReadVariableOp_1/resource"
  op: "Const"
  attr {
    key: "dtype"
    value {
      type: DT_FLOAT
    }
  }
  attr {
    key: "value"
    value {
      tensor {
        dtype: DT_FLOAT
        tensor_shape {
          dim {
            size: 96
          }
        }
        tensor_content: "…"
      }
    }
  }
}
node {
  name: "tinyLPR/upsample/Const"
  op: "Const"
  attr {
    key: "dtype"
    value {
      type: DT_INT32
    }
  }
  attr {
    key: "value"
    value {
      tensor {
        dtype: DT_INT32
        tensor_shape {
          dim {
            size: 2
          }
        }
        tensor_content: "\004\000\000\000\010\000\000\000"
      }
    }
  }
}
node {
  name: "tinyLPR/upsample/Const_1"
  op: "Const"
  attr {
    key: "dtype"
    value {
      type: DT_INT32
    }
  }
  attr {
    key: "value"
    value {
      tensor {
        dtype: DT_INT32
        tensor_shape {
          dim {
            size: 2
          }
        }
        int_val: 2
      }
    }
  }
}
node {
  name: "tinyLPR/tf.concat/concat/axis"
  op: "Const"
  attr {
    key: "dtype"
    value {
      type: DT_INT32
    }
  }
  attr {
    key: "value"
    value {
      tensor {
        dtype: DT_INT32
        tensor_shape {
        }
        int_val: -1
      }
    }
  }
}
node {
  name: "tinyLPR/lraspp_f1/lraspp_conv_1x1_f1/Conv2D/ReadVariableOp/resource"
  op: "Const"
  attr {
    key: "dtype"
    value {
      type: DT_FLOAT
    }
  }
  attr {
    key: "value"
    value {
      tensor {
        dtype: DT_FLOAT
        tensor_shape {
          dim {
            size: 1
          }
          dim {
            size: 1
          }
          dim {
            size: 144
          }
          dim {
            size: 128
          }
        }
        tensor_content: "…"
      }
    }
  }
}
node {
  name: "tinyLPR/lraspp_f1/lraspp_bn_f1/ReadVariableOp/resource"
  op: "Const"
  attr {
    key: "dtype"
    value {
      type: DT_FLOAT
    }
  }
  attr {
    key: "value"
    value {
      tensor {
        dtype: DT_FLOAT
        tensor_shape {
          dim {
            size: 128
          }
        }
        tensor_content: "…"
      }
    }
  }
}
node {
  name: "tinyLPR/lraspp_f1/lraspp_bn_f1/ReadVariableOp_1/resource"
  op: "Const"
  attr {
    key: "dtype"
    value {
      type: DT_FLOAT
    }
  }
  attr {
    key: "value"
    value {
      tensor {
        dtype: DT_FLOAT
        tensor_shape {
          dim {
            size: 128
          }
        }
        tensor_content: "…"
      }
    }
  }
}
node {
  name: "tinyLPR/lraspp_f1/lraspp_bn_f1/FusedBatchNormV3/ReadVariableOp/resource"
  op: "Const"
  attr {
    key: "dtype"
    value {
      type: DT_FLOAT
    }
  }
  attr {
    key: "value"
    value {
      tensor {
        dtype: DT_FLOAT
        tensor_shape {
          dim {
            size: 128
          }
        }
        tensor_content: "…"
      }
    }
  }
}
node {
  name: "tinyLPR/lraspp_f1/lraspp_bn_f1/FusedBatchNormV3/ReadVariableOp_1/resource"
  op: "Const"
  attr {
    key: "dtype"
    value {
      type: DT_FLOAT
    }
  }
  attr {
    key: "value"
    value {
      tensor {
        dtype: DT_FLOAT
        tensor_shape {
          dim {
            size: 128
          }
        }
        tensor_content: "…"
      }
    }
  }
}
node {
  name: "tinyLPR/lraspp_f2/global_avg_pool/Mean/reduction_indices"
  op: "Const"
  attr {
    key: "dtype"
    value {
      type: DT_INT32
    }
  }
  attr {
    key: "value"
    value {
      tensor {
        dtype: DT_INT32
        tensor_shape {
          dim {
            size: 2
          }
        }
        tensor_content: "\001\000\000\000\002\000\000\000"
      }
    }
  }
}
node {
  name: "tinyLPR/lraspp_f2/lraspp_conv_1x1_f2/Conv2D/ReadVariableOp/resource"
  op: "Const"
  attr {
    key: "dtype"
    value {
      type: DT_FLOAT
    }
  }
  attr {
    key: "value"
    value {
      tensor {
        dtype: DT_FLOAT
        tensor_shape {
          dim {
            size: 1
          }
          dim {
            size: 1
          }
          dim {
            size: 144
          }
          dim {
            size: 128
          }
        }
        tensor_content: "…"
      }
    }
  }
}
node {
  name: "tinyLPR/lraspp_f2/lraspp_conv_1x1_f2/BiasAdd/ReadVariableOp/resource"
  op: "Const"
  attr {
    key: "dtype"
    value {
      type: DT_FLOAT
    }
  }
  attr {
    key: "value"
    value {
      tensor {
        dtype: DT_FLOAT
        tensor_shape {
          dim {
            size: 128
          }
        }
        tensor_content: "…"
      }
    }
  }
}
node {
  name: "tinyLPR/lraspp_f2/lraspp_up8x/Const"
  op: "Const"
  attr {
    key: "dtype"
    value {
      type: DT_INT32
    }
  }
  attr {
    key: "value"
    value {
      tensor {
        dtype: DT_INT32
        tensor_shape {
          dim {
            size: 2
          }
        }
        int_val: 1
      }
    }
  }
}
node {
  name: "tinyLPR/lraspp_f2/lraspp_up8x/Const_1"
  op: "Const"
  attr {
    key: "dtype"
    value {
      type: DT_INT32
    }
  }
  attr {
    key: "value"
    value {
      tensor {
        dtype: DT_INT32
        tensor_shape {
          dim {
            size: 2
          }
        }
        tensor_content: "\010\000\000\000\020\000\000\000"
      }
    }
  }
}
node {
  name: "tinyLPR/tf.compat.v1.shape/Shape"
  op: "Const"
  attr {
    key: "dtype"
    value {
      type: DT_INT32
    }
  }
  attr {
    key: "value"
    value {
      tensor {
        dtype: DT_INT32
        tensor_shape {
          dim {
            size: 4
          }
        }
        tensor_content: "\001\000\000\000\010\000\000\000\020\000\000\000\200\000\000\000"
      }
    }
  }
}
node {
  name: "tinyLPR/tf.__operators__.getitem/strided_slice/stack"
  op: "Const"
  attr {
    key: "dtype"
    value {
      type: DT_INT32
    }
  }
  attr {
    key: "value"
    value {
      tensor {
        dtype: DT_INT32
        tensor_shape {
          dim {
            size: 1
          }
        }
      }
    }
  }
}
node {
  name: "tinyLPR/tf.__operators__.getitem/strided_slice/stack_1"
  op: "Const"
  attr {
    key: "dtype"
    value {
      type: DT_INT32
    }
  }
  attr {
    key: "value"
    value {
      tensor {
        dtype: DT_INT32
        tensor_shape {
          dim {
            size: 1
          }
        }
        int_val: 1
      }
    }
  }
}
node {
  name: "tinyLPR/tf.__operators__.getitem/strided_slice/stack_2"
  op: "Const"
  attr {
    key: "dtype"
    value {
      type: DT_INT32
    }
  }
  attr {
    key: "value"
    value {
      tensor {
        dtype: DT_INT32
        tensor_shape {
          dim {
            size: 1
          }
        }
        int_val: 1
      }
    }
  }
}
node {
  name: "tinyLPR/tf.reshape/Reshape/shape/1"
  op: "Const"
  attr {
    key: "dtype"
    value {
      type: DT_INT32
    }
  }
  attr {
    key: "value"
    value {
      tensor {
        dtype: DT_INT32
        tensor_shape {
        }
        int_val: 128
      }
    }
  }
}
node {
  name: "tinyLPR/tf.reshape/Reshape/shape/2"
  op: "Const"
  attr {
    key: "dtype"
    value {
      type: DT_INT32
    }
  }
  attr {
    key: "value"
    value {
      tensor {
        dtype: DT_INT32
        tensor_shape {
        }
        int_val: 128
      }
    }
  }
}
node {
  name: "tinyLPR/dense_softmax/dense_softmax/Tensordot/Reshape/shape"
  op: "Const"
  attr {
    key: "dtype"
    value {
      type: DT_INT32
    }
  }
  attr {
    key: "value"
    value {
      tensor {
        dtype: DT_INT32
        tensor_shape {
          dim {
            size: 2
          }
        }
        int_val: 128
      }
    }
  }
}
node {
  name: "tinyLPR/dense_softmax/dense_softmax/Tensordot/ReadVariableOp/resource"
  op: "Const"
  attr {
    key: "dtype"
    value {
      type: DT_FLOAT
    }
  }
  attr {
    key: "value"
    value {
      tensor {
        dtype: DT_FLOAT
        tensor_shape {
          dim {
            size: 128
          }
          dim {
            size: 86
          }
        }
        tensor_content: "…"
      }
    }
  }
}
node {
  name: "tinyLPR/dense_softmax/dense_softmax/Tensordot/shape"
  op: "Const"
  attr {
    key: "dtype"
    value {
      type: DT_INT32
    }
  }
  attr {
    key: "value"
    value {
      tensor {
        dtype: DT_INT32
        tensor_shape {
          dim {
            size: 3
          }
        }
        tensor_content: "\001\000\000\000\200\000\000\000V\000\000\000"
      }
    }
  }
}
node {
  name: "tinyLPR/dense_softmax/dense_softmax/BiasAdd/ReadVariableOp/resource"
  op: "Const"
  attr {
    key: "dtype"
    value {
      type: DT_FLOAT
    }
  }
  attr {
    key: "value"
    value {
      tensor {
        dtype: DT_FLOAT
        tensor_shape {
          dim {
            size: 86
          }
        }
        tensor_content: "…"
      }
    }
  }
}
node {
  name: "tinyLPR/dense_softmax/bn_softmax/batchnorm/ReadVariableOp/resource"
  op: "Const"
  attr {
    key: "dtype"
    value {
      type: DT_FLOAT
    }
  }
  attr {
    key: "value"
    value {
      tensor {
        dtype: DT_FLOAT
        tensor_shape {
          dim {
            size: 86
          }
        }
        tensor_content: "…"
      }
    }
  }
}
node {
  name: "tinyLPR/dense_softmax/bn_softmax/batchnorm/add/y"
  op: "Const"
  attr {
    key: "dtype"
    value {
      type: DT_FLOAT
    }
  }
  attr {
    key: "value"
    value {
      tensor {
        dtype: DT_FLOAT
        tensor_shape {
        }
        float_val: 0.0010000000474974513
      }
    }
  }
}
node {
  name: "tinyLPR/dense_softmax/bn_softmax/batchnorm/mul/ReadVariableOp/resource"
  op: "Const"
  attr {
    key: "dtype"
    value {
      type: DT_FLOAT
    }
  }
  attr {
    key: "value"
    value {
      tensor {
        dtype: DT_FLOAT
        tensor_shape {
          dim {
            size: 86
          }
        }
        tensor_content: "…"
      }
    }
  }
}
node {
  name: "tinyLPR/dense_softmax/bn_softmax/batchnorm/ReadVariableOp_2/resource"
  op: "Const"
  attr {
    key: "dtype"
    value {
      type: DT_FLOAT
    }
  }
  attr {
    key: "value"
    value {
      tensor {
        dtype: DT_FLOAT
        tensor_shape {
          dim {
            size: 86
          }
        }
        tensor_content: "…"
      }
    }
  }
}
node {
  name: "tinyLPR/dense_softmax/bn_softmax/batchnorm/ReadVariableOp_1/resource"
  op: "Const"
  attr {
    key: "dtype"
    value {
      type: DT_FLOAT
    }
  }
  attr {
    key: "value"
    value {
      tensor {
        dtype: DT_FLOAT
        tensor_shape {
          dim {
            size: 86
          }
        }
        tensor_content: "…"
      }
    }
  }
}
node {
  name: "tinyLPR/mobile_net_v3_small/conv1/Conv2D/ReadVariableOp"
  op: "Identity"
  input: "tinyLPR/mobile_net_v3_small/conv1/Conv2D/ReadVariableOp/resource"
  attr {
    key: "T"
    value {
      type: DT_FLOAT
    }
  }
}
node {
  name: "tinyLPR/mobile_net_v3_small/conv1/Conv2D"
  op: "Conv2D"
  input: "input0"
  input: "tinyLPR/mobile_net_v3_small/conv1/Conv2D/ReadVariableOp"
  attr {
    key: "T"
    value {
      type: DT_FLOAT
    }
  }
  attr {
    key: "data_format"
    value {
      s: "NHWC"
    }
  }
  attr {
    key: "dilations"
    value {
      list {
        i: 1
        i: 1
        i: 1
        i: 1
      }
    }
  }
  attr {
    key: "explicit_paddings"
    value {
      list {
      }
    }
  }
  attr {
    key: "padding"
    value {
      s: "SAME"
    }
  }
  attr {
    key: "strides"
    value {
      list {
        i: 1
        i: 2
        i: 2
        i: 1
      }
    }
  }
  attr {
    key: "use_cudnn_on_gpu"
    value {
      b: true
    }
  }
}
node {
  name: "tinyLPR/mobile_net_v3_small/bn1/ReadVariableOp"
  op: "Identity"
  input: "tinyLPR/mobile_net_v3_small/bn1/ReadVariableOp/resource"
  attr {
    key: "T"
    value {
      type: DT_FLOAT
    }
  }
}
node {
  name: "tinyLPR/mobile_net_v3_small/bn1/ReadVariableOp_1"
  op: "Identity"
  input: "tinyLPR/mobile_net_v3_small/bn1/ReadVariableOp_1/resource"
  attr {
    key: "T"
    value {
      type: DT_FLOAT
    }
  }
}
node {
  name: "tinyLPR/mobile_net_v3_small/bn1/FusedBatchNormV3/ReadVariableOp"
  op: "Identity"
  input: "tinyLPR/mobile_net_v3_small/bn1/FusedBatchNormV3/ReadVariableOp/resource"
  attr {
    key: "T"
    value {
      type: DT_FLOAT
    }
  }
}
node {
  name: "tinyLPR/mobile_net_v3_small/bn1/FusedBatchNormV3/ReadVariableOp_1"
  op: "Identity"
  input: "tinyLPR/mobile_net_v3_small/bn1/FusedBatchNormV3/ReadVariableOp_1/resource"
  attr {
    key: "T"
    value {
      type: DT_FLOAT
    }
  }
}
node {
  name: "tinyLPR/mobile_net_v3_small/bn1/FusedBatchNormV3"
  op: "FusedBatchNormV3"
  input: "tinyLPR/mobile_net_v3_small/conv1/Conv2D"
  input: "tinyLPR/mobile_net_v3_small/bn1/ReadVariableOp"
  input: "tinyLPR/mobile_net_v3_small/bn1/ReadVariableOp_1"
  input: "tinyLPR/mobile_net_v3_small/bn1/FusedBatchNormV3/ReadVariableOp"
  input: "tinyLPR/mobile_net_v3_small/bn1/FusedBatchNormV3/ReadVariableOp_1"
  attr {
    key: "T"
    value {
      type: DT_FLOAT
    }
  }
  attr {
    key: "U"
    value {
      type: DT_FLOAT
    }
  }
  attr {
    key: "data_format"
    value {
      s: "NHWC"
    }
  }
  attr {
    key: "epsilon"
    value {
      f: 0.0010000000474974513
    }
  }
  attr {
    key: "exponential_avg_factor"
    value {
      f: 1.0
    }
  }
  attr {
    key: "is_training"
    value {
      b: false
    }
  }
}
node {
  name: "tinyLPR/mobile_net_v3_small/act1/Relu6"
  op: "Relu6"
  input: "tinyLPR/mobile_net_v3_small/bn1/FusedBatchNormV3"
  attr {
    key: "T"
    value {
      type: DT_FLOAT
    }
  }
}
node {
  name: "tinyLPR/mobile_net_v3_small/bottle_neck/block/pw_in/conv2d/Conv2D/ReadVariableOp"
  op: "Identity"
  input: "tinyLPR/mobile_net_v3_small/bottle_neck/block/pw_in/conv2d/Conv2D/ReadVariableOp/resource"
  attr {
    key: "T"
    value {
      type: DT_FLOAT
    }
  }
}
node {
  name: "tinyLPR/mobile_net_v3_small/bottle_neck/block/pw_in/conv2d/Conv2D"
  op: "Conv2D"
  input: "tinyLPR/mobile_net_v3_small/act1/Relu6"
  input: "tinyLPR/mobile_net_v3_small/bottle_neck/block/pw_in/conv2d/Conv2D/ReadVariableOp"
  attr {
    key: "T"
    value {
      type: DT_FLOAT
    }
  }
  attr {
    key: "data_format"
    value {
      s: "NHWC"
    }
  }
  attr {
    key: "dilations"
    value {
      list {
        i: 1
        i: 1
        i: 1
        i: 1
      }
    }
  }
  attr {
    key: "explicit_paddings"
    value {
      list {
      }
    }
  }
  attr {
    key: "padding"
    value {
      s: "SAME"
    }
  }
  attr {
    key: "strides"
    value {
      list {
        i: 1
        i: 1
        i: 1
        i: 1
      }
    }
  }
  attr {
    key: "use_cudnn_on_gpu"
    value {
      b: true
    }
  }
}
node {
  name: "tinyLPR/mobile_net_v3_small/bottle_neck/block/pw_in/batch_normalization/ReadVariableOp"
  op: "Identity"
  input: "tinyLPR/mobile_net_v3_small/bottle_neck/block/pw_in/batch_normalization/ReadVariableOp/resource"
  attr {
    key: "T"
    value {
      type: DT_FLOAT
    }
  }
}
node {
  name: "tinyLPR/mobile_net_v3_small/bottle_neck/block/pw_in/batch_normalization/ReadVariableOp_1"
  op: "Identity"
  input: "tinyLPR/mobile_net_v3_small/bottle_neck/block/pw_in/batch_normalization/ReadVariableOp_1/resource"
  attr {
    key: "T"
    value {
      type: DT_FLOAT
    }
  }
}
node {
  name: "tinyLPR/mobile_net_v3_small/bottle_neck/block/pw_in/batch_normalization/FusedBatchNormV3/ReadVariableOp"
  op: "Identity"
  input: "tinyLPR/mobile_net_v3_small/bottle_neck/block/pw_in/batch_normalization/FusedBatchNormV3/ReadVariableOp/resource"
  attr {
    key: "T"
    value {
      type: DT_FLOAT
    }
  }
}
node {
  name: "tinyLPR/mobile_net_v3_small/bottle_neck/block/pw_in/batch_normalization/FusedBatchNormV3/ReadVariableOp_1"
  op: "Identity"
  input: "tinyLPR/mobile_net_v3_small/bottle_neck/block/pw_in/batch_normalization/FusedBatchNormV3/ReadVariableOp_1/resource"
  attr {
    key: "T"
    value {
      type: DT_FLOAT
    }
  }
}
node {
  name: "tinyLPR/mobile_net_v3_small/bottle_neck/block/pw_in/batch_normalization/FusedBatchNormV3"
  op: "FusedBatchNormV3"
  input: "tinyLPR/mobile_net_v3_small/bottle_neck/block/pw_in/conv2d/Conv2D"
  input: "tinyLPR/mobile_net_v3_small/bottle_neck/block/pw_in/batch_normalization/ReadVariableOp"
  input: "tinyLPR/mobile_net_v3_small/bottle_neck/block/pw_in/batch_normalization/ReadVariableOp_1"
  input: "tinyLPR/mobile_net_v3_small/bottle_neck/block/pw_in/batch_normalization/FusedBatchNormV3/ReadVariableOp"
  input: "tinyLPR/mobile_net_v3_small/bottle_neck/block/pw_in/batch_normalization/FusedBatchNormV3/ReadVariableOp_1"
  attr {
    key: "T"
    value {
      type: DT_FLOAT
    }
  }
  attr {
    key: "U"
    value {
      type: DT_FLOAT
    }
  }
  attr {
    key: "data_format"
    value {
      s: "NHWC"
    }
  }
  attr {
    key: "epsilon"
    value {
      f: 0.0010000000474974513
    }
  }
  attr {
    key: "exponential_avg_factor"
    value {
      f: 1.0
    }
  }
  attr {
    key: "is_training"
    value {
      b: false
    }
  }
}
node {
  name: "tinyLPR/mobile_net_v3_small/bottle_neck/block/pw_in/activation/Relu6"
  op: "Relu6"
  input: "tinyLPR/mobile_net_v3_small/bottle_neck/block/pw_in/batch_normalization/FusedBatchNormV3"
  attr {
    key: "T"
    value {
      type: DT_FLOAT
    }
  }
}
node {
  name: "tinyLPR/mobile_net_v3_small/bottle_neck/block/dw/depthwise_conv2d/depthwise/ReadVariableOp"
  op: "Identity"
  input: "tinyLPR/mobile_net_v3_small/bottle_neck/block/dw/depthwise_conv2d/depthwise/ReadVariableOp/resource"
  attr {
    key: "T"
    value {
      type: DT_FLOAT
    }
  }
}
node {
  name: "tinyLPR/mobile_net_v3_small/bottle_neck/block/dw/depthwise_conv2d/depthwise"
  op: "DepthwiseConv2dNative"
  input: "tinyLPR/mobile_net_v3_small/bottle_neck/block/pw_in/activation/Relu6"
  input: "tinyLPR/mobile_net_v3_small/bottle_neck/block/dw/depthwise_conv2d/depthwise/ReadVariableOp"
  attr {
    key: "T"
    value {
      type: DT_FLOAT
    }
  }
  attr {
    key: "data_format"
    value {
      s: "NHWC"
    }
  }
  attr {
    key: "dilations"
    value {
      list {
        i: 1
        i: 1
        i: 1
        i: 1
      }
    }
  }
  attr {
    key: "explicit_paddings"
    value {
      list {
      }
    }
  }
  attr {
    key: "padding"
    value {
      s: "SAME"
    }
  }
  attr {
    key: "strides"
    value {
      list {
        i: 1
        i: 2
        i: 2
        i: 1
      }
    }
  }
}
node {
  name: "tinyLPR/mobile_net_v3_small/bottle_neck/block/dw/batch_normalization_1/ReadVariableOp"
  op: "Identity"
  input: "tinyLPR/mobile_net_v3_small/bottle_neck/block/dw/batch_normalization_1/ReadVariableOp/resource"
  attr {
    key: "T"
    value {
      type: DT_FLOAT
    }
  }
}
node {
  name: "tinyLPR/mobile_net_v3_small/bottle_neck/block/dw/batch_normalization_1/ReadVariableOp_1"
  op: "Identity"
  input: "tinyLPR/mobile_net_v3_small/bottle_neck/block/dw/batch_normalization_1/ReadVariableOp_1/resource"
  attr {
    key: "T"
    value {
      type: DT_FLOAT
    }
  }
}
node {
  name: "tinyLPR/mobile_net_v3_small/bottle_neck/block/dw/batch_normalization_1/FusedBatchNormV3/ReadVariableOp"
  op: "Identity"
  input: "tinyLPR/mobile_net_v3_small/bottle_neck/block/dw/batch_normalization_1/FusedBatchNormV3/ReadVariableOp/resource"
  attr {
    key: "T"
    value {
      type: DT_FLOAT
    }
  }
}
node {
  name: "tinyLPR/mobile_net_v3_small/bottle_neck/block/dw/batch_normalization_1/FusedBatchNormV3/ReadVariableOp_1"
  op: "Identity"
  input: "tinyLPR/mobile_net_v3_small/bottle_neck/block/dw/batch_normalization_1/FusedBatchNormV3/ReadVariableOp_1/resource"
  attr {
    key: "T"
    value {
      type: DT_FLOAT
    }
  }
}
node {
  name: "tinyLPR/mobile_net_v3_small/bottle_neck/block/dw/batch_normalization_1/FusedBatchNormV3"
  op: "FusedBatchNormV3"
  input: "tinyLPR/mobile_net_v3_small/bottle_neck/block/dw/depthwise_conv2d/depthwise"
  input: "tinyLPR/mobile_net_v3_small/bottle_neck/block/dw/batch_normalization_1/ReadVariableOp"
  input: "tinyLPR/mobile_net_v3_small/bottle_neck/block/dw/batch_normalization_1/ReadVariableOp_1"
  input: "tinyLPR/mobile_net_v3_small/bottle_neck/block/dw/batch_normalization_1/FusedBatchNormV3/ReadVariableOp"
  input: "tinyLPR/mobile_net_v3_small/bottle_neck/block/dw/batch_normalization_1/FusedBatchNormV3/ReadVariableOp_1"
  attr {
    key: "T"
    value {
      type: DT_FLOAT
    }
  }
  attr {
    key: "U"
    value {
      type: DT_FLOAT
    }
  }
  attr {
    key: "data_format"
    value {
      s: "NHWC"
    }
  }
  attr {
    key: "epsilon"
    value {
      f: 0.0010000000474974513
    }
  }
  attr {
    key: "exponential_avg_factor"
    value {
      f: 1.0
    }
  }
  attr {
    key: "is_training"
    value {
      b: false
    }
  }
}
node {
  name: "tinyLPR/mobile_net_v3_small/bottle_neck/block/dw/activation_1/Relu6"
  op: "Relu6"
  input: "tinyLPR/mobile_net_v3_small/bottle_neck/block/dw/batch_normalization_1/FusedBatchNormV3"
  attr {
    key: "T"
    value {
      type: DT_FLOAT
    }
  }
}
node {
  name: "tinyLPR/mobile_net_v3_small/bottle_neck/block/pw_out/conv2d_1/Conv2D/ReadVariableOp"
  op: "Identity"
  input: "tinyLPR/mobile_net_v3_small/bottle_neck/block/pw_out/conv2d_1/Conv2D/ReadVariableOp/resource"
  attr {
    key: "T"
    value {
      type: DT_FLOAT
    }
  }
}
node {
  name: "tinyLPR/mobile_net_v3_small/bottle_neck/block/pw_out/conv2d_1/Conv2D"
  op: "Conv2D"
  input: "tinyLPR/mobile_net_v3_small/bottle_neck/block/dw/activation_1/Relu6"
  input: "tinyLPR/mobile_net_v3_small/bottle_neck/block/pw_out/conv2d_1/Conv2D/ReadVariableOp"
  attr {
    key: "T"
    value {
      type: DT_FLOAT
    }
  }
  attr {
    key: "data_format"
    value {
      s: "NHWC"
    }
  }
  attr {
    key: "dilations"
    value {
      list {
        i: 1
        i: 1
        i: 1
        i: 1
      }
    }
  }
  attr {
    key: "explicit_paddings"
    value {
      list {
      }
    }
  }
  attr {
    key: "padding"
    value {
      s: "SAME"
    }
  }
  attr {
    key: "strides"
    value {
      list {
        i: 1
        i: 1
        i: 1
        i: 1
      }
    }
  }
  attr {
    key: "use_cudnn_on_gpu"
    value {
      b: true
    }
  }
}
node {
  name: "tinyLPR/mobile_net_v3_small/bottle_neck/block/pw_out/batch_normalization_2/ReadVariableOp"
  op: "Identity"
  input: "tinyLPR/mobile_net_v3_small/bottle_neck/block/pw_out/batch_normalization_2/ReadVariableOp/resource"
  attr {
    key: "T"
    value {
      type: DT_FLOAT
    }
  }
}
node {
  name: "tinyLPR/mobile_net_v3_small/bottle_neck/block/pw_out/batch_normalization_2/ReadVariableOp_1"
  op: "Identity"
  input: "tinyLPR/mobile_net_v3_small/bottle_neck/block/pw_out/batch_normalization_2/ReadVariableOp_1/resource"
  attr {
    key: "T"
    value {
      type: DT_FLOAT
    }
  }
}
node {
  name: "tinyLPR/mobile_net_v3_small/bottle_neck/block/pw_out/batch_normalization_2/FusedBatchNormV3/ReadVariableOp"
  op: "Identity"
  input: "tinyLPR/mobile_net_v3_small/bottle_neck/block/pw_out/batch_normalization_2/FusedBatchNormV3/ReadVariableOp/resource"
  attr {
    key: "T"
    value {
      type: DT_FLOAT
    }
  }
}
node {
  name: "tinyLPR/mobile_net_v3_small/bottle_neck/block/pw_out/batch_normalization_2/FusedBatchNormV3/ReadVariableOp_1"
  op: "Identity"
  input: "tinyLPR/mobile_net_v3_small/bottle_neck/block/pw_out/batch_normalization_2/FusedBatchNormV3/ReadVariableOp_1/resource"
  attr {
    key: "T"
    value {
      type: DT_FLOAT
    }
  }
}
node {
  name: "tinyLPR/mobile_net_v3_small/bottle_neck/block/pw_out/batch_normalization_2/FusedBatchNormV3"
  op: "FusedBatchNormV3"
  input: "tinyLPR/mobile_net_v3_small/bottle_neck/block/pw_out/conv2d_1/Conv2D"
  input: "tinyLPR/mobile_net_v3_small/bottle_neck/block/pw_out/batch_normalization_2/ReadVariableOp"
  input: "tinyLPR/mobile_net_v3_small/bottle_neck/block/pw_out/batch_normalization_2/ReadVariableOp_1"
  input: "tinyLPR/mobile_net_v3_small/bottle_neck/block/pw_out/batch_normalization_2/FusedBatchNormV3/ReadVariableOp"
  input: "tinyLPR/mobile_net_v3_small/bottle_neck/block/pw_out/batch_normalization_2/FusedBatchNormV3/ReadVariableOp_1"
  attr {
    key: "T"
    value {
      type: DT_FLOAT
    }
  }
  attr {
    key: "U"
    value {
      type: DT_FLOAT
    }
  }
  attr {
    key: "data_format"
    value {
      s: "NHWC"
    }
  }
  attr {
    key: "epsilon"
    value {
      f: 0.0010000000474974513
    }
  }
  attr {
    key: "exponential_avg_factor"
    value {
      f: 1.0
    }
  }
  attr {
    key: "is_training"
    value {
      b: false
    }
  }
}
node {
  name: "tinyLPR/mobile_net_v3_small/bottle_neck_1/block/pw_in/conv2d_2/Conv2D/ReadVariableOp"
  op: "Identity"
  input: "tinyLPR/mobile_net_v3_small/bottle_neck_1/block/pw_in/conv2d_2/Conv2D/ReadVariableOp/resource"
  attr {
    key: "T"
    value {
      type: DT_FLOAT
    }
  }
}
node {
  name: "tinyLPR/mobile_net_v3_small/bottle_neck_1/block/pw_in/conv2d_2/Conv2D"
  op: "Conv2D"
  input: "tinyLPR/mobile_net_v3_small/bottle_neck/block/pw_out/batch_normalization_2/FusedBatchNormV3"
  input: "tinyLPR/mobile_net_v3_small/bottle_neck_1/block/pw_in/conv2d_2/Conv2D/ReadVariableOp"
  attr {
    key: "T"
    value {
      type: DT_FLOAT
    }
  }
  attr {
    key: "data_format"
    value {
      s: "NHWC"
    }
  }
  attr {
    key: "dilations"
    value {
      list {
        i: 1
        i: 1
        i: 1
        i: 1
      }
    }
  }
  attr {
    key: "explicit_paddings"
    value {
      list {
      }
    }
  }
  attr {
    key: "padding"
    value {
      s: "SAME"
    }
  }
  attr {
    key: "strides"
    value {
      list {
        i: 1
        i: 1
        i: 1
        i: 1
      }
    }
  }
  attr {
    key: "use_cudnn_on_gpu"
    value {
      b: true
    }
  }
}
node {
  name: "tinyLPR/mobile_net_v3_small/bottle_neck_1/block/pw_in/batch_normalization_3/ReadVariableOp"
  op: "Identity"
  input: "tinyLPR/mobile_net_v3_small/bottle_neck_1/block/pw_in/batch_normalization_3/ReadVariableOp/resource"
  attr {
    key: "T"
    value {
      type: DT_FLOAT
    }
  }
}
node {
  name: "tinyLPR/mobile_net_v3_small/bottle_neck_1/block/pw_in/batch_normalization_3/ReadVariableOp_1"
  op: "Identity"
  input: "tinyLPR/mobile_net_v3_small/bottle_neck_1/block/pw_in/batch_normalization_3/ReadVariableOp_1/resource"
  attr {
    key: "T"
    value {
      type: DT_FLOAT
    }
  }
}
node {
  name: "tinyLPR/mobile_net_v3_small/bottle_neck_1/block/pw_in/batch_normalization_3/FusedBatchNormV3/ReadVariableOp"
  op: "Identity"
  input: "tinyLPR/mobile_net_v3_small/bottle_neck_1/block/pw_in/batch_normalization_3/FusedBatchNormV3/ReadVariableOp/resource"
  attr {
    key: "T"
    value {
      type: DT_FLOAT
    }
  }
}
node {
  name: "tinyLPR/mobile_net_v3_small/bottle_neck_1/block/pw_in/batch_normalization_3/FusedBatchNormV3/ReadVariableOp_1"
  op: "Identity"
  input: "tinyLPR/mobile_net_v3_small/bottle_neck_1/block/pw_in/batch_normalization_3/FusedBatchNormV3/ReadVariableOp_1/resource"
  attr {
    key: "T"
    value {
      type: DT_FLOAT
    }
  }
}
node {
  name: "tinyLPR/mobile_net_v3_small/bottle_neck_1/block/pw_in/batch_normalization_3/FusedBatchNormV3"
  op: "FusedBatchNormV3"
  input: "tinyLPR/mobile_net_v3_small/bottle_neck_1/block/pw_in/conv2d_2/Conv2D"
  input: "tinyLPR/mobile_net_v3_small/bottle_neck_1/block/pw_in/batch_normalization_3/ReadVariableOp"
  input: "tinyLPR/mobile_net_v3_small/bottle_neck_1/block/pw_in/batch_normalization_3/ReadVariableOp_1"
  input: "tinyLPR/mobile_net_v3_small/bottle_neck_1/block/pw_in/batch_normalization_3/FusedBatchNormV3/ReadVariableOp"
  input: "tinyLPR/mobile_net_v3_small/bottle_neck_1/block/pw_in/batch_normalization_3/FusedBatchNormV3/ReadVariableOp_1"
  attr {
    key: "T"
    value {
      type: DT_FLOAT
    }
  }
  attr {
    key: "U"
    value {
      type: DT_FLOAT
    }
  }
  attr {
    key: "data_format"
    value {
      s: "NHWC"
    }
  }
  attr {
    key: "epsilon"
    value {
      f: 0.0010000000474974513
    }
  }
  attr {
    key: "exponential_avg_factor"
    value {
      f: 1.0
    }
  }
  attr {
    key: "is_training"
    value {
      b: false
    }
  }
}
node {
  name: "tinyLPR/mobile_net_v3_small/bottle_neck_1/block/pw_in/activation_2/Relu6"
  op: "Relu6"
  input: "tinyLPR/mobile_net_v3_small/bottle_neck_1/block/pw_in/batch_normalization_3/FusedBatchNormV3"
  attr {
    key: "T"
    value {
      type: DT_FLOAT
    }
  }
}
node {
  name: "tinyLPR/mobile_net_v3_small/bottle_neck_1/block/dw/depthwise_conv2d_1/depthwise/ReadVariableOp"
  op: "Identity"
  input: "tinyLPR/mobile_net_v3_small/bottle_neck_1/block/dw/depthwise_conv2d_1/depthwise/ReadVariableOp/resource"
  attr {
    key: "T"
    value {
      type: DT_FLOAT
    }
  }
}
node {
  name: "tinyLPR/mobile_net_v3_small/bottle_neck_1/block/dw/depthwise_conv2d_1/depthwise"
  op: "DepthwiseConv2dNative"
  input: "tinyLPR/mobile_net_v3_small/bottle_neck_1/block/pw_in/activation_2/Relu6"
  input: "tinyLPR/mobile_net_v3_small/bottle_neck_1/block/dw/depthwise_conv2d_1/depthwise/ReadVariableOp"
  attr {
    key: "T"
    value {
      type: DT_FLOAT
    }
  }
  attr {
    key: "data_format"
    value {
      s: "NHWC"
    }
  }
  attr {
    key: "dilations"
    value {
      list {
        i: 1
        i: 1
        i: 1
        i: 1
      }
    }
  }
  attr {
    key: "explicit_paddings"
    value {
      list {
      }
    }
  }
  attr {
    key: "padding"
    value {
      s: "SAME"
    }
  }
  attr {
    key: "strides"
    value {
      list {
        i: 1
        i: 1
        i: 1
        i: 1
      }
    }
  }
}
node {
  name: "tinyLPR/mobile_net_v3_small/bottle_neck_1/block/dw/batch_normalization_4/ReadVariableOp"
  op: "Identity"
  input: "tinyLPR/mobile_net_v3_small/bottle_neck_1/block/dw/batch_normalization_4/ReadVariableOp/resource"
  attr {
    key: "T"
    value {
      type: DT_FLOAT
    }
  }
}
node {
  name: "tinyLPR/mobile_net_v3_small/bottle_neck_1/block/dw/batch_normalization_4/ReadVariableOp_1"
  op: "Identity"
  input: "tinyLPR/mobile_net_v3_small/bottle_neck_1/block/dw/batch_normalization_4/ReadVariableOp_1/resource"
  attr {
    key: "T"
    value {
      type: DT_FLOAT
    }
  }
}
node {
  name: "tinyLPR/mobile_net_v3_small/bottle_neck_1/block/dw/batch_normalization_4/FusedBatchNormV3/ReadVariableOp"
  op: "Identity"
  input: "tinyLPR/mobile_net_v3_small/bottle_neck_1/block/dw/batch_normalization_4/FusedBatchNormV3/ReadVariableOp/resource"
  attr {
    key: "T"
    value {
      type: DT_FLOAT
    }
  }
}
node {
  name: "tinyLPR/mobile_net_v3_small/bottle_neck_1/block/dw/batch_normalization_4/FusedBatchNormV3/ReadVariableOp_1"
  op: "Identity"
  input: "tinyLPR/mobile_net_v3_small/bottle_neck_1/block/dw/batch_normalization_4/FusedBatchNormV3/ReadVariableOp_1/resource"
  attr {
    key: "T"
    value {
      type: DT_FLOAT
    }
  }
}
node {
  name: "tinyLPR/mobile_net_v3_small/bottle_neck_1/block/dw/batch_normalization_4/FusedBatchNormV3"
  op: "FusedBatchNormV3"
  input: "tinyLPR/mobile_net_v3_small/bottle_neck_1/block/dw/depthwise_conv2d_1/depthwise"
  input: "tinyLPR/mobile_net_v3_small/bottle_neck_1/block/dw/batch_normalization_4/ReadVariableOp"
  input: "tinyLPR/mobile_net_v3_small/bottle_neck_1/block/dw/batch_normalization_4/ReadVariableOp_1"
  input: "tinyLPR/mobile_net_v3_small/bottle_neck_1/block/dw/batch_normalization_4/FusedBatchNormV3/ReadVariableOp"
  input: "tinyLPR/mobile_net_v3_small/bottle_neck_1/block/dw/batch_normalization_4/FusedBatchNormV3/ReadVariableOp_1"
  attr {
    key: "T"
    value {
      type: DT_FLOAT
    }
  }
  attr {
    key: "U"
    value {
      type: DT_FLOAT
    }
  }
  attr {
    key: "data_format"
    value {
      s: "NHWC"
    }
  }
  attr {
    key: "epsilon"
    value {
      f: 0.0010000000474974513
    }
  }
  attr {
    key: "exponential_avg_factor"
    value {
      f: 1.0
    }
  }
  attr {
    key: "is_training"
    value {
      b: false
    }
  }
}
node {
  name: "tinyLPR/mobile_net_v3_small/bottle_neck_1/block/dw/activation_3/Relu6"
  op: "Relu6"
  input: "tinyLPR/mobile_net_v3_small/bottle_neck_1/block/dw/batch_normalization_4/FusedBatchNormV3"
  attr {
    key: "T"
    value {
      type: DT_FLOAT
    }
  }
}
node {
  name: "tinyLPR/mobile_net_v3_small/bottle_neck_1/block/pw_out/conv2d_3/Conv2D/ReadVariableOp"
  op: "Identity"
  input: "tinyLPR/mobile_net_v3_small/bottle_neck_1/block/pw_out/conv2d_3/Conv2D/ReadVariableOp/resource"
  attr {
    key: "T"
    value {
      type: DT_FLOAT
    }
  }
}
node {
  name: "tinyLPR/mobile_net_v3_small/bottle_neck_1/block/pw_out/conv2d_3/Conv2D"
  op: "Conv2D"
  input: "tinyLPR/mobile_net_v3_small/bottle_neck_1/block/dw/activation_3/Relu6"
  input: "tinyLPR/mobile_net_v3_small/bottle_neck_1/block/pw_out/conv2d_3/Conv2D/ReadVariableOp"
  attr {
    key: "T"
    value {
      type: DT_FLOAT
    }
  }
  attr {
    key: "data_format"
    value {
      s: "NHWC"
    }
  }
  attr {
    key: "dilations"
    value {
      list {
        i: 1
        i: 1
        i: 1
        i: 1
      }
    }
  }
  attr {
    key: "explicit_paddings"
    value {
      list {
      }
    }
  }
  attr {
    key: "padding"
    value {
      s: "SAME"
    }
  }
  attr {
    key: "strides"
    value {
      list {
        i: 1
        i: 1
        i: 1
        i: 1
      }
    }
  }
  attr {
    key: "use_cudnn_on_gpu"
    value {
      b: true
    }
  }
}
node {
  name: "tinyLPR/mobile_net_v3_small/bottle_neck_1/block/pw_out/batch_normalization_5/ReadVariableOp"
  op: "Identity"
  input: "tinyLPR/mobile_net_v3_small/bottle_neck_1/block/pw_out/batch_normalization_5/ReadVariableOp/resource"
  attr {
    key: "T"
    value {
      type: DT_FLOAT
    }
  }
}
node {
  name: "tinyLPR/mobile_net_v3_small/bottle_neck_1/block/pw_out/batch_normalization_5/ReadVariableOp_1"
  op: "Identity"
  input: "tinyLPR/mobile_net_v3_small/bottle_neck_1/block/pw_out/batch_normalization_5/ReadVariableOp_1/resource"
  attr {
    key: "T"
    value {
      type: DT_FLOAT
    }
  }
}
node {
  name: "tinyLPR/mobile_net_v3_small/bottle_neck_1/block/pw_out/batch_normalization_5/FusedBatchNormV3/ReadVariableOp"
  op: "Identity"
  input: "tinyLPR/mobile_net_v3_small/bottle_neck_1/block/pw_out/batch_normalization_5/FusedBatchNormV3/ReadVariableOp/resource"
  attr {
    key: "T"
    value {
      type: DT_FLOAT
    }
  }
}
node {
  name: "tinyLPR/mobile_net_v3_small/bottle_neck_1/block/pw_out/batch_normalization_5/FusedBatchNormV3/ReadVariableOp_1"
  op: "Identity"
  input: "tinyLPR/mobile_net_v3_small/bottle_neck_1/block/pw_out/batch_normalization_5/FusedBatchNormV3/ReadVariableOp_1/resource"
  attr {
    key: "T"
    value {
      type: DT_FLOAT
    }
  }
}
node {
  name: "tinyLPR/mobile_net_v3_small/bottle_neck_1/block/pw_out/batch_normalization_5/FusedBatchNormV3"
  op: "FusedBatchNormV3"
  input: "tinyLPR/mobile_net_v3_small/bottle_neck_1/block/pw_out/conv2d_3/Conv2D"
  input: "tinyLPR/mobile_net_v3_small/bottle_neck_1/block/pw_out/batch_normalization_5/ReadVariableOp"
  input: "tinyLPR/mobile_net_v3_small/bottle_neck_1/block/pw_out/batch_normalization_5/ReadVariableOp_1"
  input: "tinyLPR/mobile_net_v3_small/bottle_neck_1/block/pw_out/batch_normalization_5/FusedBatchNormV3/ReadVariableOp"
  input: "tinyLPR/mobile_net_v3_small/bottle_neck_1/block/pw_out/batch_normalization_5/FusedBatchNormV3/ReadVariableOp_1"
  attr {
    key: "T"
    value {
      type: DT_FLOAT
    }
  }
  attr {
    key: "U"
    value {
      type: DT_FLOAT
    }
  }
  attr {
    key: "data_format"
    value {
      s: "NHWC"
    }
  }
  attr {
    key: "epsilon"
    value {
      f: 0.0010000000474974513
    }
  }
  attr {
    key: "exponential_avg_factor"
    value {
      f: 1.0
    }
  }
  attr {
    key: "is_training"
    value {
      b: false
    }
  }
}
node {
  name: "tinyLPR/mobile_net_v3_small/bottle_neck_2/block/pw_in/conv2d_4/Conv2D/ReadVariableOp"
  op: "Identity"
  input: "tinyLPR/mobile_net_v3_small/bottle_neck_2/block/pw_in/conv2d_4/Conv2D/ReadVariableOp/resource"
  attr {
    key: "T"
    value {
      type: DT_FLOAT
    }
  }
}
node {
  name: "tinyLPR/mobile_net_v3_small/bottle_neck_2/block/pw_in/conv2d_4/Conv2D"
  op: "Conv2D"
  input: "tinyLPR/mobile_net_v3_small/bottle_neck_1/block/pw_out/batch_normalization_5/FusedBatchNormV3"
  input: "tinyLPR/mobile_net_v3_small/bottle_neck_2/block/pw_in/conv2d_4/Conv2D/ReadVariableOp"
  attr {
    key: "T"
    value {
      type: DT_FLOAT
    }
  }
  attr {
    key: "data_format"
    value {
      s: "NHWC"
    }
  }
  attr {
    key: "dilations"
    value {
      list {
        i: 1
        i: 1
        i: 1
        i: 1
      }
    }
  }
  attr {
    key: "explicit_paddings"
    value {
      list {
      }
    }
  }
  attr {
    key: "padding"
    value {
      s: "SAME"
    }
  }
  attr {
    key: "strides"
    value {
      list {
        i: 1
        i: 1
        i: 1
        i: 1
      }
    }
  }
  attr {
    key: "use_cudnn_on_gpu"
    value {
      b: true
    }
  }
}
node {
  name: "tinyLPR/mobile_net_v3_small/bottle_neck_2/block/pw_in/batch_normalization_6/ReadVariableOp"
  op: "Identity"
  input: "tinyLPR/mobile_net_v3_small/bottle_neck_2/block/pw_in/batch_normalization_6/ReadVariableOp/resource"
  attr {
    key: "T"
    value {
      type: DT_FLOAT
    }
  }
}
node {
  name: "tinyLPR/mobile_net_v3_small/bottle_neck_2/block/pw_in/batch_normalization_6/ReadVariableOp_1"
  op: "Identity"
  input: "tinyLPR/mobile_net_v3_small/bottle_neck_2/block/pw_in/batch_normalization_6/ReadVariableOp_1/resource"
  attr {
    key: "T"
    value {
      type: DT_FLOAT
    }
  }
}
node {
  name: "tinyLPR/mobile_net_v3_small/bottle_neck_2/block/pw_in/batch_normalization_6/FusedBatchNormV3/ReadVariableOp"
  op: "Identity"
  input: "tinyLPR/mobile_net_v3_small/bottle_neck_2/block/pw_in/batch_normalization_6/FusedBatchNormV3/ReadVariableOp/resource"
  attr {
    key: "T"
    value {
      type: DT_FLOAT
    }
  }
}
node {
  name: "tinyLPR/mobile_net_v3_small/bottle_neck_2/block/pw_in/batch_normalization_6/FusedBatchNormV3/ReadVariableOp_1"
  op: "Identity"
  input: "tinyLPR/mobile_net_v3_small/bottle_neck_2/block/pw_in/batch_normalization_6/FusedBatchNormV3/ReadVariableOp_1/resource"
  attr {
    key: "T"
    value {
      type: DT_FLOAT
    }
  }
}
node {
  name: "tinyLPR/mobile_net_v3_small/bottle_neck_2/block/pw_in/batch_normalization_6/FusedBatchNormV3"
  op: "FusedBatchNormV3"
  input: "tinyLPR/mobile_net_v3_small/bottle_neck_2/block/pw_in/conv2d_4/Conv2D"
  input: "tinyLPR/mobile_net_v3_small/bottle_neck_2/block/pw_in/batch_normalization_6/ReadVariableOp"
  input: "tinyLPR/mobile_net_v3_small/bottle_neck_2/block/pw_in/batch_normalization_6/ReadVariableOp_1"
  input: "tinyLPR/mobile_net_v3_small/bottle_neck_2/block/pw_in/batch_normalization_6/FusedBatchNormV3/ReadVariableOp"
  input: "tinyLPR/mobile_net_v3_small/bottle_neck_2/block/pw_in/batch_normalization_6/FusedBatchNormV3/ReadVariableOp_1"
  attr {
    key: "T"
    value {
      type: DT_FLOAT
    }
  }
  attr {
    key: "U"
    value {
      type: DT_FLOAT
    }
  }
  attr {
    key: "data_format"
    value {
      s: "NHWC"
    }
  }
  attr {
    key: "epsilon"
    value {
      f: 0.0010000000474974513
    }
  }
  attr {
    key: "exponential_avg_factor"
    value {
      f: 1.0
    }
  }
  attr {
    key: "is_training"
    value {
      b: false
    }
  }
}
node {
  name: "tinyLPR/mobile_net_v3_small/bottle_neck_2/block/pw_in/activation_4/Relu6"
  op: "Relu6"
  input: "tinyLPR/mobile_net_v3_small/bottle_neck_2/block/pw_in/batch_normalization_6/FusedBatchNormV3"
  attr {
    key: "T"
    value {
      type: DT_FLOAT
    }
  }
}
node {
  name: "tinyLPR/mobile_net_v3_small/bottle_neck_2/block/dw/depthwise_conv2d_2/depthwise/ReadVariableOp"
  op: "Identity"
  input: "tinyLPR/mobile_net_v3_small/bottle_neck_2/block/dw/depthwise_conv2d_2/depthwise/ReadVariableOp/resource"
  attr {
    key: "T"
    value {
      type: DT_FLOAT
    }
  }
}
node {
  name: "tinyLPR/mobile_net_v3_small/bottle_neck_2/block/dw/depthwise_conv2d_2/depthwise"
  op: "DepthwiseConv2dNative"
  input: "tinyLPR/mobile_net_v3_small/bottle_neck_2/block/pw_in/activation_4/Relu6"
  input: "tinyLPR/mobile_net_v3_small/bottle_neck_2/block/dw/depthwise_conv2d_2/depthwise/ReadVariableOp"
  attr {
    key: "T"
    value {
      type: DT_FLOAT
    }
  }
  attr {
    key: "data_format"
    value {
      s: "NHWC"
    }
  }
  attr {
    key: "dilations"
    value {
      list {
        i: 1
        i: 1
        i: 1
        i: 1
      }
    }
  }
  attr {
    key: "explicit_paddings"
    value {
      list {
      }
    }
  }
  attr {
    key: "padding"
    value {
      s: "SAME"
    }
  }
  attr {
    key: "strides"
    value {
      list {
        i: 1
        i: 1
        i: 1
        i: 1
      }
    }
  }
}
node {
  name: "tinyLPR/mobile_net_v3_small/bottle_neck_2/block/dw/batch_normalization_7/ReadVariableOp"
  op: "Identity"
  input: "tinyLPR/mobile_net_v3_small/bottle_neck_2/block/dw/batch_normalization_7/ReadVariableOp/resource"
  attr {
    key: "T"
    value {
      type: DT_FLOAT
    }
  }
}
node {
  name: "tinyLPR/mobile_net_v3_small/bottle_neck_2/block/dw/batch_normalization_7/ReadVariableOp_1"
  op: "Identity"
  input: "tinyLPR/mobile_net_v3_small/bottle_neck_2/block/dw/batch_normalization_7/ReadVariableOp_1/resource"
  attr {
    key: "T"
    value {
      type: DT_FLOAT
    }
  }
}
node {
  name: "tinyLPR/mobile_net_v3_small/bottle_neck_2/block/dw/batch_normalization_7/FusedBatchNormV3/ReadVariableOp"
  op: "Identity"
  input: "tinyLPR/mobile_net_v3_small/bottle_neck_2/block/dw/batch_normalization_7/FusedBatchNormV3/ReadVariableOp/resource"
  attr {
    key: "T"
    value {
      type: DT_FLOAT
    }
  }
}
node {
  name: "tinyLPR/mobile_net_v3_small/bottle_neck_2/block/dw/batch_normalization_7/FusedBatchNormV3/ReadVariableOp_1"
  op: "Identity"
  input: "tinyLPR/mobile_net_v3_small/bottle_neck_2/block/dw/batch_normalization_7/FusedBatchNormV3/ReadVariableOp_1/resource"
  attr {
    key: "T"
    value {
      type: DT_FLOAT
    }
  }
}
node {
  name: "tinyLPR/mobile_net_v3_small/bottle_neck_2/block/dw/batch_normalization_7/FusedBatchNormV3"
  op: "FusedBatchNormV3"
  input: "tinyLPR/mobile_net_v3_small/bottle_neck_2/block/dw/depthwise_conv2d_2/depthwise"
  input: "tinyLPR/mobile_net_v3_small/bottle_neck_2/block/dw/batch_normalization_7/ReadVariableOp"
  input: "tinyLPR/mobile_net_v3_small/bottle_neck_2/block/dw/batch_normalization_7/ReadVariableOp_1"
  input: "tinyLPR/mobile_net_v3_small/bottle_neck_2/block/dw/batch_normalization_7/FusedBatchNormV3/ReadVariableOp"
  input: "tinyLPR/mobile_net_v3_small/bottle_neck_2/block/dw/batch_normalization_7/FusedBatchNormV3/ReadVariableOp_1"
  attr {
    key: "T"
    value {
      type: DT_FLOAT
    }
  }
  attr {
    key: "U"
    value {
      type: DT_FLOAT
    }
  }
  attr {
    key: "data_format"
    value {
      s: "NHWC"
    }
  }
  attr {
    key: "epsilon"
    value {
      f: 0.0010000000474974513
    }
  }
  attr {
    key: "exponential_avg_factor"
    value {
      f: 1.0
    }
  }
  attr {
    key: "is_training"
    value {
      b: false
    }
  }
}
node {
  name: "tinyLPR/mobile_net_v3_small/bottle_neck_2/block/dw/activation_5/Relu6"
  op: "Relu6"
  input: "tinyLPR/mobile_net_v3_small/bottle_neck_2/block/dw/batch_normalization_7/FusedBatchNormV3"
  attr {
    key: "T"
    value {
      type: DT_FLOAT
    }
  }
}
node {
  name: "tinyLPR/mobile_net_v3_small/bottle_neck_2/block/pw_out/conv2d_5/Conv2D/ReadVariableOp"
  op: "Identity"
  input: "tinyLPR/mobile_net_v3_small/bottle_neck_2/block/pw_out/conv2d_5/Conv2D/ReadVariableOp/resource"
  attr {
    key: "T"
    value {
      type: DT_FLOAT
    }
  }
}
node {
  name: "tinyLPR/mobile_net_v3_small/bottle_neck_2/block/pw_out/conv2d_5/Conv2D"
  op: "Conv2D"
  input: "tinyLPR/mobile_net_v3_small/bottle_neck_2/block/dw/activation_5/Relu6"
  input: "tinyLPR/mobile_net_v3_small/bottle_neck_2/block/pw_out/conv2d_5/Conv2D/ReadVariableOp"
  attr {
    key: "T"
    value {
      type: DT_FLOAT
    }
  }
  attr {
    key: "data_format"
    value {
      s: "NHWC"
    }
  }
  attr {
    key: "dilations"
    value {
      list {
        i: 1
        i: 1
        i: 1
        i: 1
      }
    }
  }
  attr {
    key: "explicit_paddings"
    value {
      list {
      }
    }
  }
  attr {
    key: "padding"
    value {
      s: "SAME"
    }
  }
  attr {
    key: "strides"
    value {
      list {
        i: 1
        i: 1
        i: 1
        i: 1
      }
    }
  }
  attr {
    key: "use_cudnn_on_gpu"
    value {
      b: true
    }
  }
}
node {
  name: "tinyLPR/mobile_net_v3_small/bottle_neck_2/block/pw_out/batch_normalization_8/ReadVariableOp"
  op: "Identity"
  input: "tinyLPR/mobile_net_v3_small/bottle_neck_2/block/pw_out/batch_normalization_8/ReadVariableOp/resource"
  attr {
    key: "T"
    value {
      type: DT_FLOAT
    }
  }
}
node {
  name: "tinyLPR/mobile_net_v3_small/bottle_neck_2/block/pw_out/batch_normalization_8/ReadVariableOp_1"
  op: "Identity"
  input: "tinyLPR/mobile_net_v3_small/bottle_neck_2/block/pw_out/batch_normalization_8/ReadVariableOp_1/resource"
  attr {
    key: "T"
    value {
      type: DT_FLOAT
    }
  }
}
node {
  name: "tinyLPR/mobile_net_v3_small/bottle_neck_2/block/pw_out/batch_normalization_8/FusedBatchNormV3/ReadVariableOp"
  op: "Identity"
  input: "tinyLPR/mobile_net_v3_small/bottle_neck_2/block/pw_out/batch_normalization_8/FusedBatchNormV3/ReadVariableOp/resource"
  attr {
    key: "T"
    value {
      type: DT_FLOAT
    }
  }
}
node {
  name: "tinyLPR/mobile_net_v3_small/bottle_neck_2/block/pw_out/batch_normalization_8/FusedBatchNormV3/ReadVariableOp_1"
  op: "Identity"
  input: "tinyLPR/mobile_net_v3_small/bottle_neck_2/block/pw_out/batch_normalization_8/FusedBatchNormV3/ReadVariableOp_1/resource"
  attr {
    key: "T"
    value {
      type: DT_FLOAT
    }
  }
}
node {
  name: "tinyLPR/mobile_net_v3_small/bottle_neck_2/block/pw_out/batch_normalization_8/FusedBatchNormV3"
  op: "FusedBatchNormV3"
  input: "tinyLPR/mobile_net_v3_small/bottle_neck_2/block/pw_out/conv2d_5/Conv2D"
  input: "tinyLPR/mobile_net_v3_small/bottle_neck_2/block/pw_out/batch_normalization_8/ReadVariableOp"
  input: "tinyLPR/mobile_net_v3_small/bottle_neck_2/block/pw_out/batch_normalization_8/ReadVariableOp_1"
  input: "tinyLPR/mobile_net_v3_small/bottle_neck_2/block/pw_out/batch_normalization_8/FusedBatchNormV3/ReadVariableOp"
  input: "tinyLPR/mobile_net_v3_small/bottle_neck_2/block/pw_out/batch_normalization_8/FusedBatchNormV3/ReadVariableOp_1"
  attr {
    key: "T"
    value {
      type: DT_FLOAT
    }
  }
  attr {
    key: "U"
    value {
      type: DT_FLOAT
    }
  }
  attr {
    key: "data_format"
    value {
      s: "NHWC"
    }
  }
  attr {
    key: "epsilon"
    value {
      f: 0.0010000000474974513
    }
  }
  attr {
    key: "exponential_avg_factor"
    value {
      f: 1.0
    }
  }
  attr {
    key: "is_training"
    value {
      b: false
    }
  }
}
node {
  name: "tinyLPR/mobile_net_v3_small/bottle_neck_2/add/add"
  op: "AddV2"
  input: "tinyLPR/mobile_net_v3_small/bottle_neck_2/block/pw_out/batch_normalization_8/FusedBatchNormV3"
  input: "tinyLPR/mobile_net_v3_small/bottle_neck_1/block/pw_out/batch_normalization_5/FusedBatchNormV3"
  attr {
    key: "T"
    value {
      type: DT_FLOAT
    }
  }
}
node {
  name: "tinyLPR/c1_conv/Conv2D/ReadVariableOp"
  op: "Identity"
  input: "tinyLPR/c1_conv/Conv2D/ReadVariableOp/resource"
  attr {
    key: "T"
    value {
      type: DT_FLOAT
    }
  }
}
node {
  name: "tinyLPR/c1_conv/Conv2D"
  op: "Conv2D"
  input: "tinyLPR/mobile_net_v3_small/bottle_neck_2/add/add"
  input: "tinyLPR/c1_conv/Conv2D/ReadVariableOp"
  attr {
    key: "T"
    value {
      type: DT_FLOAT
    }
  }
  attr {
    key: "data_format"
    value {
      s: "NHWC"
    }
  }
  attr {
    key: "dilations"
    value {
      list {
        i: 1
        i: 1
        i: 1
        i: 1
      }
    }
  }
  attr {
    key: "explicit_paddings"
    value {
      list {
      }
    }
  }
  attr {
    key: "padding"
    value {
      s: "SAME"
    }
  }
  attr {
    key: "strides"
    value {
      list {
        i: 1
        i: 2
        i: 2
        i: 1
      }
    }
  }
  attr {
    key: "use_cudnn_on_gpu"
    value {
      b: true
    }
  }
}
node {
  name: "tinyLPR/c1_conv/BiasAdd/ReadVariableOp"
  op: "Identity"
  input: "tinyLPR/c1_conv/BiasAdd/ReadVariableOp/resource"
  attr {
    key: "T"
    value {
      type: DT_FLOAT
    }
  }
}
node {
  name: "tinyLPR/c1_conv/BiasAdd"
  op: "BiasAdd"
  input: "tinyLPR/c1_conv/Conv2D"
  input: "tinyLPR/c1_conv/BiasAdd/ReadVariableOp"
  attr {
    key: "T"
    value {
      type: DT_FLOAT
    }
  }
  attr {
    key: "data_format"
    value {
      s: "NHWC"
    }
  }
}
node {
  name: "tinyLPR/mobile_net_v3_small/bottle_neck_3/block/pw_in/conv2d_6/Conv2D/ReadVariableOp"
  op: "Identity"
  input: "tinyLPR/mobile_net_v3_small/bottle_neck_3/block/pw_in/conv2d_6/Conv2D/ReadVariableOp/resource"
  attr {
    key: "T"
    value {
      type: DT_FLOAT
    }
  }
}
node {
  name: "tinyLPR/mobile_net_v3_small/bottle_neck_3/block/pw_in/conv2d_6/Conv2D"
  op: "Conv2D"
  input: "tinyLPR/mobile_net_v3_small/bottle_neck_2/add/add"
  input: "tinyLPR/mobile_net_v3_small/bottle_neck_3/block/pw_in/conv2d_6/Conv2D/ReadVariableOp"
  attr {
    key: "T"
    value {
      type: DT_FLOAT
    }
  }
  attr {
    key: "data_format"
    value {
      s: "NHWC"
    }
  }
  attr {
    key: "dilations"
    value {
      list {
        i: 1
        i: 1
        i: 1
        i: 1
      }
    }
  }
  attr {
    key: "explicit_paddings"
    value {
      list {
      }
    }
  }
  attr {
    key: "padding"
    value {
      s: "SAME"
    }
  }
  attr {
    key: "strides"
    value {
      list {
        i: 1
        i: 1
        i: 1
        i: 1
      }
    }
  }
  attr {
    key: "use_cudnn_on_gpu"
    value {
      b: true
    }
  }
}
node {
  name: "tinyLPR/mobile_net_v3_small/bottle_neck_3/block/pw_in/batch_normalization_9/ReadVariableOp"
  op: "Identity"
  input: "tinyLPR/mobile_net_v3_small/bottle_neck_3/block/pw_in/batch_normalization_9/ReadVariableOp/resource"
  attr {
    key: "T"
    value {
      type: DT_FLOAT
    }
  }
}
node {
  name: "tinyLPR/mobile_net_v3_small/bottle_neck_3/block/pw_in/batch_normalization_9/ReadVariableOp_1"
  op: "Identity"
  input: "tinyLPR/mobile_net_v3_small/bottle_neck_3/block/pw_in/batch_normalization_9/ReadVariableOp_1/resource"
  attr {
    key: "T"
    value {
      type: DT_FLOAT
    }
  }
}
node {
  name: "tinyLPR/mobile_net_v3_small/bottle_neck_3/block/pw_in/batch_normalization_9/FusedBatchNormV3/ReadVariableOp"
  op: "Identity"
  input: "tinyLPR/mobile_net_v3_small/bottle_neck_3/block/pw_in/batch_normalization_9/FusedBatchNormV3/ReadVariableOp/resource"
  attr {
    key: "T"
    value {
      type: DT_FLOAT
    }
  }
}
node {
  name: "tinyLPR/mobile_net_v3_small/bottle_neck_3/block/pw_in/batch_normalization_9/FusedBatchNormV3/ReadVariableOp_1"
  op: "Identity"
  input: "tinyLPR/mobile_net_v3_small/bottle_neck_3/block/pw_in/batch_normalization_9/FusedBatchNormV3/ReadVariableOp_1/resource"
  attr {
    key: "T"
    value {
      type: DT_FLOAT
    }
  }
}
node {
  name: "tinyLPR/mobile_net_v3_small/bottle_neck_3/block/pw_in/batch_normalization_9/FusedBatchNormV3"
  op: "FusedBatchNormV3"
  input: "tinyLPR/mobile_net_v3_small/bottle_neck_3/block/pw_in/conv2d_6/Conv2D"
  input: "tinyLPR/mobile_net_v3_small/bottle_neck_3/block/pw_in/batch_normalization_9/ReadVariableOp"
  input: "tinyLPR/mobile_net_v3_small/bottle_neck_3/block/pw_in/batch_normalization_9/ReadVariableOp_1"
  input: "tinyLPR/mobile_net_v3_small/bottle_neck_3/block/pw_in/batch_normalization_9/FusedBatchNormV3/ReadVariableOp"
  input: "tinyLPR/mobile_net_v3_small/bottle_neck_3/block/pw_in/batch_normalization_9/FusedBatchNormV3/ReadVariableOp_1"
  attr {
    key: "T"
    value {
      type: DT_FLOAT
    }
  }
  attr {
    key: "U"
    value {
      type: DT_FLOAT
    }
  }
  attr {
    key: "data_format"
    value {
      s: "NHWC"
    }
  }
  attr {
    key: "epsilon"
    value {
      f: 0.0010000000474974513
    }
  }
  attr {
    key: "exponential_avg_factor"
    value {
      f: 1.0
    }
  }
  attr {
    key: "is_training"
    value {
      b: false
    }
  }
}
node {
  name: "tinyLPR/mobile_net_v3_small/bottle_neck_3/block/pw_in/activation_6/Relu6"
  op: "Relu6"
  input: "tinyLPR/mobile_net_v3_small/bottle_neck_3/block/pw_in/batch_normalization_9/FusedBatchNormV3"
  attr {
    key: "T"
    value {
      type: DT_FLOAT
    }
  }
}
node {
  name: "tinyLPR/mobile_net_v3_small/bottle_neck_3/block/dw/depthwise_conv2d_3/depthwise/ReadVariableOp"
  op: "Identity"
  input: "tinyLPR/mobile_net_v3_small/bottle_neck_3/block/dw/depthwise_conv2d_3/depthwise/ReadVariableOp/resource"
  attr {
    key: "T"
    value {
      type: DT_FLOAT
    }
  }
}
node {
  name: "tinyLPR/mobile_net_v3_small/bottle_neck_3/block/dw/depthwise_conv2d_3/depthwise"
  op: "DepthwiseConv2dNative"
  input: "tinyLPR/mobile_net_v3_small/bottle_neck_3/block/pw_in/activation_6/Relu6"
  input: "tinyLPR/mobile_net_v3_small/bottle_neck_3/block/dw/depthwise_conv2d_3/depthwise/ReadVariableOp"
  attr {
    key: "T"
    value {
      type: DT_FLOAT
    }
  }
  attr {
    key: "data_format"
    value {
      s: "NHWC"
    }
  }
  attr {
    key: "dilations"
    value {
      list {
        i: 1
        i: 1
        i: 1
        i: 1
      }
    }
  }
  attr {
    key: "explicit_paddings"
    value {
      list {
      }
    }
  }
  attr {
    key: "padding"
    value {
      s: "SAME"
    }
  }
  attr {
    key: "strides"
    value {
      list {
        i: 1
        i: 2
        i: 2
        i: 1
      }
    }
  }
}
node {
  name: "tinyLPR/mobile_net_v3_small/bottle_neck_3/block/dw/batch_normalization_10/ReadVariableOp"
  op: "Identity"
  input: "tinyLPR/mobile_net_v3_small/bottle_neck_3/block/dw/batch_normalization_10/ReadVariableOp/resource"
  attr {
    key: "T"
    value {
      type: DT_FLOAT
    }
  }
}
node {
  name: "tinyLPR/mobile_net_v3_small/bottle_neck_3/block/dw/batch_normalization_10/ReadVariableOp_1"
  op: "Identity"
  input: "tinyLPR/mobile_net_v3_small/bottle_neck_3/block/dw/batch_normalization_10/ReadVariableOp_1/resource"
  attr {
    key: "T"
    value {
      type: DT_FLOAT
    }
  }
}
node {
  name: "tinyLPR/mobile_net_v3_small/bottle_neck_3/block/dw/batch_normalization_10/FusedBatchNormV3/ReadVariableOp"
  op: "Identity"
  input: "tinyLPR/mobile_net_v3_small/bottle_neck_3/block/dw/batch_normalization_10/FusedBatchNormV3/ReadVariableOp/resource"
  attr {
    key: "T"
    value {
      type: DT_FLOAT
    }
  }
}
node {
  name: "tinyLPR/mobile_net_v3_small/bottle_neck_3/block/dw/batch_normalization_10/FusedBatchNormV3/ReadVariableOp_1"
  op: "Identity"
  input: "tinyLPR/mobile_net_v3_small/bottle_neck_3/block/dw/batch_normalization_10/FusedBatchNormV3/ReadVariableOp_1/resource"
  attr {
    key: "T"
    value {
      type: DT_FLOAT
    }
  }
}
node {
  name: "tinyLPR/mobile_net_v3_small/bottle_neck_3/block/dw/batch_normalization_10/FusedBatchNormV3"
  op: "FusedBatchNormV3"
  input: "tinyLPR/mobile_net_v3_small/bottle_neck_3/block/dw/depthwise_conv2d_3/depthwise"
  input: "tinyLPR/mobile_net_v3_small/bottle_neck_3/block/dw/batch_normalization_10/ReadVariableOp"
  input: "tinyLPR/mobile_net_v3_small/bottle_neck_3/block/dw/batch_normalization_10/ReadVariableOp_1"
  input: "tinyLPR/mobile_net_v3_small/bottle_neck_3/block/dw/batch_normalization_10/FusedBatchNormV3/ReadVariableOp"
  input: "tinyLPR/mobile_net_v3_small/bottle_neck_3/block/dw/batch_normalization_10/FusedBatchNormV3/ReadVariableOp_1"
  attr {
    key: "T"
    value {
      type: DT_FLOAT
    }
  }
  attr {
    key: "U"
    value {
      type: DT_FLOAT
    }
  }
  attr {
    key: "data_format"
    value {
      s: "NHWC"
    }
  }
  attr {
    key: "epsilon"
    value {
      f: 0.0010000000474974513
    }
  }
  attr {
    key: "exponential_avg_factor"
    value {
      f: 1.0
    }
  }
  attr {
    key: "is_training"
    value {
      b: false
    }
  }
}
node {
  name: "tinyLPR/mobile_net_v3_small/bottle_neck_3/block/dw/activation_7/Relu6"
  op: "Relu6"
  input: "tinyLPR/mobile_net_v3_small/bottle_neck_3/block/dw/batch_normalization_10/FusedBatchNormV3"
  attr {
    key: "T"
    value {
      type: DT_FLOAT
    }
  }
}
node {
  name: "tinyLPR/mobile_net_v3_small/bottle_neck_3/block/pw_out/conv2d_7/Conv2D/ReadVariableOp"
  op: "Identity"
  input: "tinyLPR/mobile_net_v3_small/bottle_neck_3/block/pw_out/conv2d_7/Conv2D/ReadVariableOp/resource"
  attr {
    key: "T"
    value {
      type: DT_FLOAT
    }
  }
}
node {
  name: "tinyLPR/mobile_net_v3_small/bottle_neck_3/block/pw_out/conv2d_7/Conv2D"
  op: "Conv2D"
  input: "tinyLPR/mobile_net_v3_small/bottle_neck_3/block/dw/activation_7/Relu6"
  input: "tinyLPR/mobile_net_v3_small/bottle_neck_3/block/pw_out/conv2d_7/Conv2D/ReadVariableOp"
  attr {
    key: "T"
    value {
      type: DT_FLOAT
    }
  }
  attr {
    key: "data_format"
    value {
      s: "NHWC"
    }
  }
  attr {
    key: "dilations"
    value {
      list {
        i: 1
        i: 1
        i: 1
        i: 1
      }
    }
  }
  attr {
    key: "explicit_paddings"
    value {
      list {
      }
    }
  }
  attr {
    key: "padding"
    value {
      s: "SAME"
    }
  }
  attr {
    key: "strides"
    value {
      list {
        i: 1
        i: 1
        i: 1
        i: 1
      }
    }
  }
  attr {
    key: "use_cudnn_on_gpu"
    value {
      b: true
    }
  }
}
node {
  name: "tinyLPR/mobile_net_v3_small/bottle_neck_3/block/pw_out/batch_normalization_11/ReadVariableOp"
  op: "Identity"
  input: "tinyLPR/mobile_net_v3_small/bottle_neck_3/block/pw_out/batch_normalization_11/ReadVariableOp/resource"
  attr {
    key: "T"
    value {
      type: DT_FLOAT
    }
  }
}
node {
  name: "tinyLPR/mobile_net_v3_small/bottle_neck_3/block/pw_out/batch_normalization_11/ReadVariableOp_1"
  op: "Identity"
  input: "tinyLPR/mobile_net_v3_small/bottle_neck_3/block/pw_out/batch_normalization_11/ReadVariableOp_1/resource"
  attr {
    key: "T"
    value {
      type: DT_FLOAT
    }
  }
}
node {
  name: "tinyLPR/mobile_net_v3_small/bottle_neck_3/block/pw_out/batch_normalization_11/FusedBatchNormV3/ReadVariableOp"
  op: "Identity"
  input: "tinyLPR/mobile_net_v3_small/bottle_neck_3/block/pw_out/batch_normalization_11/FusedBatchNormV3/ReadVariableOp/resource"
  attr {
    key: "T"
    value {
      type: DT_FLOAT
    }
  }
}
node {
  name: "tinyLPR/mobile_net_v3_small/bottle_neck_3/block/pw_out/batch_normalization_11/FusedBatchNormV3/ReadVariableOp_1"
  op: "Identity"
  input: "tinyLPR/mobile_net_v3_small/bottle_neck_3/block/pw_out/batch_normalization_11/FusedBatchNormV3/ReadVariableOp_1/resource"
  attr {
    key: "T"
    value {
      type: DT_FLOAT
    }
  }
}
node {
  name: "tinyLPR/mobile_net_v3_small/bottle_neck_3/block/pw_out/batch_normalization_11/FusedBatchNormV3"
  op: "FusedBatchNormV3"
  input: "tinyLPR/mobile_net_v3_small/bottle_neck_3/block/pw_out/conv2d_7/Conv2D"
  input: "tinyLPR/mobile_net_v3_small/bottle_neck_3/block/pw_out/batch_normalization_11/ReadVariableOp"
  input: "tinyLPR/mobile_net_v3_small/bottle_neck_3/block/pw_out/batch_normalization_11/ReadVariableOp_1"
  input: "tinyLPR/mobile_net_v3_small/bottle_neck_3/block/pw_out/batch_normalization_11/FusedBatchNormV3/ReadVariableOp"
  input: "tinyLPR/mobile_net_v3_small/bottle_neck_3/block/pw_out/batch_normalization_11/FusedBatchNormV3/ReadVariableOp_1"
  attr {
    key: "T"
    value {
      type: DT_FLOAT
    }
  }
  attr {
    key: "U"
    value {
      type: DT_FLOAT
    }
  }
  attr {
    key: "data_format"
    value {
      s: "NHWC"
    }
  }
  attr {
    key: "epsilon"
    value {
      f: 0.0010000000474974513
    }
  }
  attr {
    key: "exponential_avg_factor"
    value {
      f: 1.0
    }
  }
  attr {
    key: "is_training"
    value {
      b: false
    }
  }
}
node {
  name: "tinyLPR/mobile_net_v3_small/bottle_neck_4/block/pw_in/conv2d_8/Conv2D/ReadVariableOp"
  op: "Identity"
  input: "tinyLPR/mobile_net_v3_small/bottle_neck_4/block/pw_in/conv2d_8/Conv2D/ReadVariableOp/resource"
  attr {
    key: "T"
    value {
      type: DT_FLOAT
    }
  }
}
node {
  name: "tinyLPR/mobile_net_v3_small/bottle_neck_4/block/pw_in/conv2d_8/Conv2D"
  op: "Conv2D"
  input: "tinyLPR/mobile_net_v3_small/bottle_neck_3/block/pw_out/batch_normalization_11/FusedBatchNormV3"
  input: "tinyLPR/mobile_net_v3_small/bottle_neck_4/block/pw_in/conv2d_8/Conv2D/ReadVariableOp"
  attr {
    key: "T"
    value {
      type: DT_FLOAT
    }
  }
  attr {
    key: "data_format"
    value {
      s: "NHWC"
    }
  }
  attr {
    key: "dilations"
    value {
      list {
        i: 1
        i: 1
        i: 1
        i: 1
      }
    }
  }
  attr {
    key: "explicit_paddings"
    value {
      list {
      }
    }
  }
  attr {
    key: "padding"
    value {
      s: "SAME"
    }
  }
  attr {
    key: "strides"
    value {
      list {
        i: 1
        i: 1
        i: 1
        i: 1
      }
    }
  }
  attr {
    key: "use_cudnn_on_gpu"
    value {
      b: true
    }
  }
}
node {
  name: "tinyLPR/mobile_net_v3_small/bottle_neck_4/block/pw_in/batch_normalization_12/ReadVariableOp"
  op: "Identity"
  input: "tinyLPR/mobile_net_v3_small/bottle_neck_4/block/pw_in/batch_normalization_12/ReadVariableOp/resource"
  attr {
    key: "T"
    value {
      type: DT_FLOAT
    }
  }
}
node {
  name: "tinyLPR/mobile_net_v3_small/bottle_neck_4/block/pw_in/batch_normalization_12/ReadVariableOp_1"
  op: "Identity"
  input: "tinyLPR/mobile_net_v3_small/bottle_neck_4/block/pw_in/batch_normalization_12/ReadVariableOp_1/resource"
  attr {
    key: "T"
    value {
      type: DT_FLOAT
    }
  }
}
node {
  name: "tinyLPR/mobile_net_v3_small/bottle_neck_4/block/pw_in/batch_normalization_12/FusedBatchNormV3/ReadVariableOp"
  op: "Identity"
  input: "tinyLPR/mobile_net_v3_small/bottle_neck_4/block/pw_in/batch_normalization_12/FusedBatchNormV3/ReadVariableOp/resource"
  attr {
    key: "T"
    value {
      type: DT_FLOAT
    }
  }
}
node {
  name: "tinyLPR/mobile_net_v3_small/bottle_neck_4/block/pw_in/batch_normalization_12/FusedBatchNormV3/ReadVariableOp_1"
  op: "Identity"
  input: "tinyLPR/mobile_net_v3_small/bottle_neck_4/block/pw_in/batch_normalization_12/FusedBatchNormV3/ReadVariableOp_1/resource"
  attr {
    key: "T"
    value {
      type: DT_FLOAT
    }
  }
}
node {
  name: "tinyLPR/mobile_net_v3_small/bottle_neck_4/block/pw_in/batch_normalization_12/FusedBatchNormV3"
  op: "FusedBatchNormV3"
  input: "tinyLPR/mobile_net_v3_small/bottle_neck_4/block/pw_in/conv2d_8/Conv2D"
  input: "tinyLPR/mobile_net_v3_small/bottle_neck_4/block/pw_in/batch_normalization_12/ReadVariableOp"
  input: "tinyLPR/mobile_net_v3_small/bottle_neck_4/block/pw_in/batch_normalization_12/ReadVariableOp_1"
  input: "tinyLPR/mobile_net_v3_small/bottle_neck_4/block/pw_in/batch_normalization_12/FusedBatchNormV3/ReadVariableOp"
  input: "tinyLPR/mobile_net_v3_small/bottle_neck_4/block/pw_in/batch_normalization_12/FusedBatchNormV3/ReadVariableOp_1"
  attr {
    key: "T"
    value {
      type: DT_FLOAT
    }
  }
  attr {
    key: "U"
    value {
      type: DT_FLOAT
    }
  }
  attr {
    key: "data_format"
    value {
      s: "NHWC"
    }
  }
  attr {
    key: "epsilon"
    value {
      f: 0.0010000000474974513
    }
  }
  attr {
    key: "exponential_avg_factor"
    value {
      f: 1.0
    }
  }
  attr {
    key: "is_training"
    value {
      b: false
    }
  }
}
node {
  name: "tinyLPR/mobile_net_v3_small/bottle_neck_4/block/pw_in/activation_8/Relu6"
  op: "Relu6"
  input: "tinyLPR/mobile_net_v3_small/bottle_neck_4/block/pw_in/batch_normalization_12/FusedBatchNormV3"
  attr {
    key: "T"
    value {
      type: DT_FLOAT
    }
  }
}
node {
  name: "tinyLPR/mobile_net_v3_small/bottle_neck_4/block/dw/depthwise_conv2d_4/depthwise/ReadVariableOp"
  op: "Identity"
  input: "tinyLPR/mobile_net_v3_small/bottle_neck_4/block/dw/depthwise_conv2d_4/depthwise/ReadVariableOp/resource"
  attr {
    key: "T"
    value {
      type: DT_FLOAT
    }
  }
}
node {
  name: "tinyLPR/mobile_net_v3_small/bottle_neck_4/block/dw/depthwise_conv2d_4/depthwise"
  op: "DepthwiseConv2dNative"
  input: "tinyLPR/mobile_net_v3_small/bottle_neck_4/block/pw_in/activation_8/Relu6"
  input: "tinyLPR/mobile_net_v3_small/bottle_neck_4/block/dw/depthwise_conv2d_4/depthwise/ReadVariableOp"
  attr {
    key: "T"
    value {
      type: DT_FLOAT
    }
  }
  attr {
    key: "data_format"
    value {
      s: "NHWC"
    }
  }
  attr {
    key: "dilations"
    value {
      list {
        i: 1
        i: 1
        i: 1
        i: 1
      }
    }
  }
  attr {
    key: "explicit_paddings"
    value {
      list {
      }
    }
  }
  attr {
    key: "padding"
    value {
      s: "SAME"
    }
  }
  attr {
    key: "strides"
    value {
      list {
        i: 1
        i: 1
        i: 1
        i: 1
      }
    }
  }
}
node {
  name: "tinyLPR/mobile_net_v3_small/bottle_neck_4/block/dw/batch_normalization_13/ReadVariableOp"
  op: "Identity"
  input: "tinyLPR/mobile_net_v3_small/bottle_neck_4/block/dw/batch_normalization_13/ReadVariableOp/resource"
  attr {
    key: "T"
    value {
      type: DT_FLOAT
    }
  }
}
node {
  name: "tinyLPR/mobile_net_v3_small/bottle_neck_4/block/dw/batch_normalization_13/ReadVariableOp_1"
  op: "Identity"
  input: "tinyLPR/mobile_net_v3_small/bottle_neck_4/block/dw/batch_normalization_13/ReadVariableOp_1/resource"
  attr {
    key: "T"
    value {
      type: DT_FLOAT
    }
  }
}
node {
  name: "tinyLPR/mobile_net_v3_small/bottle_neck_4/block/dw/batch_normalization_13/FusedBatchNormV3/ReadVariableOp"
  op: "Identity"
  input: "tinyLPR/mobile_net_v3_small/bottle_neck_4/block/dw/batch_normalization_13/FusedBatchNormV3/ReadVariableOp/resource"
  attr {
    key: "T"
    value {
      type: DT_FLOAT
    }
  }
}
node {
  name: "tinyLPR/mobile_net_v3_small/bottle_neck_4/block/dw/batch_normalization_13/FusedBatchNormV3/ReadVariableOp_1"
  op: "Identity"
  input: "tinyLPR/mobile_net_v3_small/bottle_neck_4/block/dw/batch_normalization_13/FusedBatchNormV3/ReadVariableOp_1/resource"
  attr {
    key: "T"
    value {
      type: DT_FLOAT
    }
  }
}
node {
  name: "tinyLPR/mobile_net_v3_small/bottle_neck_4/block/dw/batch_normalization_13/FusedBatchNormV3"
  op: "FusedBatchNormV3"
  input: "tinyLPR/mobile_net_v3_small/bottle_neck_4/block/dw/depthwise_conv2d_4/depthwise"
  input: "tinyLPR/mobile_net_v3_small/bottle_neck_4/block/dw/batch_normalization_13/ReadVariableOp"
  input: "tinyLPR/mobile_net_v3_small/bottle_neck_4/block/dw/batch_normalization_13/ReadVariableOp_1"
  input: "tinyLPR/mobile_net_v3_small/bottle_neck_4/block/dw/batch_normalization_13/FusedBatchNormV3/ReadVariableOp"
  input: "tinyLPR/mobile_net_v3_small/bottle_neck_4/block/dw/batch_normalization_13/FusedBatchNormV3/ReadVariableOp_1"
  attr {
    key: "T"
    value {
      type: DT_FLOAT
    }
  }
  attr {
    key: "U"
    value {
      type: DT_FLOAT
    }
  }
  attr {
    key: "data_format"
    value {
      s: "NHWC"
    }
  }
  attr {
    key: "epsilon"
    value {
      f: 0.0010000000474974513
    }
  }
  attr {
    key: "exponential_avg_factor"
    value {
      f: 1.0
    }
  }
  attr {
    key: "is_training"
    value {
      b: false
    }
  }
}
node {
  name: "tinyLPR/mobile_net_v3_small/bottle_neck_4/block/dw/activation_9/Relu6"
  op: "Relu6"
  input: "tinyLPR/mobile_net_v3_small/bottle_neck_4/block/dw/batch_normalization_13/FusedBatchNormV3"
  attr {
    key: "T"
    value {
      type: DT_FLOAT
    }
  }
}
node {
  name: "tinyLPR/mobile_net_v3_small/bottle_neck_4/block/pw_out/conv2d_9/Conv2D/ReadVariableOp"
  op: "Identity"
  input: "tinyLPR/mobile_net_v3_small/bottle_neck_4/block/pw_out/conv2d_9/Conv2D/ReadVariableOp/resource"
  attr {
    key: "T"
    value {
      type: DT_FLOAT
    }
  }
}
node {
  name: "tinyLPR/mobile_net_v3_small/bottle_neck_4/block/pw_out/conv2d_9/Conv2D"
  op: "Conv2D"
  input: "tinyLPR/mobile_net_v3_small/bottle_neck_4/block/dw/activation_9/Relu6"
  input: "tinyLPR/mobile_net_v3_small/bottle_neck_4/block/pw_out/conv2d_9/Conv2D/ReadVariableOp"
  attr {
    key: "T"
    value {
      type: DT_FLOAT
    }
  }
  attr {
    key: "data_format"
    value {
      s: "NHWC"
    }
  }
  attr {
    key: "dilations"
    value {
      list {
        i: 1
        i: 1
        i: 1
        i: 1
      }
    }
  }
  attr {
    key: "explicit_paddings"
    value {
      list {
      }
    }
  }
  attr {
    key: "padding"
    value {
      s: "SAME"
    }
  }
  attr {
    key: "strides"
    value {
      list {
        i: 1
        i: 1
        i: 1
        i: 1
      }
    }
  }
  attr {
    key: "use_cudnn_on_gpu"
    value {
      b: true
    }
  }
}
node {
  name: "tinyLPR/mobile_net_v3_small/bottle_neck_4/block/pw_out/batch_normalization_14/ReadVariableOp"
  op: "Identity"
  input: "tinyLPR/mobile_net_v3_small/bottle_neck_4/block/pw_out/batch_normalization_14/ReadVariableOp/resource"
  attr {
    key: "T"
    value {
      type: DT_FLOAT
    }
  }
}
node {
  name: "tinyLPR/mobile_net_v3_small/bottle_neck_4/block/pw_out/batch_normalization_14/ReadVariableOp_1"
  op: "Identity"
  input: "tinyLPR/mobile_net_v3_small/bottle_neck_4/block/pw_out/batch_normalization_14/ReadVariableOp_1/resource"
  attr {
    key: "T"
    value {
      type: DT_FLOAT
    }
  }
}
node {
  name: "tinyLPR/mobile_net_v3_small/bottle_neck_4/block/pw_out/batch_normalization_14/FusedBatchNormV3/ReadVariableOp"
  op: "Identity"
  input: "tinyLPR/mobile_net_v3_small/bottle_neck_4/block/pw_out/batch_normalization_14/FusedBatchNormV3/ReadVariableOp/resource"
  attr {
    key: "T"
    value {
      type: DT_FLOAT
    }
  }
}
node {
  name: "tinyLPR/mobile_net_v3_small/bottle_neck_4/block/pw_out/batch_normalization_14/FusedBatchNormV3/ReadVariableOp_1"
  op: "Identity"
  input: "tinyLPR/mobile_net_v3_small/bottle_neck_4/block/pw_out/batch_normalization_14/FusedBatchNormV3/ReadVariableOp_1/resource"
  attr {
    key: "T"
    value {
      type: DT_FLOAT
    }
  }
}
node {
  name: "tinyLPR/mobile_net_v3_small/bottle_neck_4/block/pw_out/batch_normalization_14/FusedBatchNormV3"
  op: "FusedBatchNormV3"
  input: "tinyLPR/mobile_net_v3_small/bottle_neck_4/block/pw_out/conv2d_9/Conv2D"
  input: "tinyLPR/mobile_net_v3_small/bottle_neck_4/block/pw_out/batch_normalization_14/ReadVariableOp"
  input: "tinyLPR/mobile_net_v3_small/bottle_neck_4/block/pw_out/batch_normalization_14/ReadVariableOp_1"
  input: "tinyLPR/mobile_net_v3_small/bottle_neck_4/block/pw_out/batch_normalization_14/FusedBatchNormV3/ReadVariableOp"
  input: "tinyLPR/mobile_net_v3_small/bottle_neck_4/block/pw_out/batch_normalization_14/FusedBatchNormV3/ReadVariableOp_1"
  attr {
    key: "T"
    value {
      type: DT_FLOAT
    }
  }
  attr {
    key: "U"
    value {
      type: DT_FLOAT
    }
  }
  attr {
    key: "data_format"
    value {
      s: "NHWC"
    }
  }
  attr {
    key: "epsilon"
    value {
      f: 0.0010000000474974513
    }
  }
  attr {
    key: "exponential_avg_factor"
    value {
      f: 1.0
    }
  }
  attr {
    key: "is_training"
    value {
      b: false
    }
  }
}
node {
  name: "tinyLPR/mobile_net_v3_small/bottle_neck_4/add_1/add"
  op: "AddV2"
  input: "tinyLPR/mobile_net_v3_small/bottle_neck_4/block/pw_out/batch_normalization_14/FusedBatchNormV3"
  input: "tinyLPR/mobile_net_v3_small/bottle_neck_3/block/pw_out/batch_normalization_11/FusedBatchNormV3"
  attr {
    key: "T"
    value {
      type: DT_FLOAT
    }
  }
}
node {
  name: "tinyLPR/mobile_net_v3_small/bottle_neck_5/block/pw_in/conv2d_10/Conv2D/ReadVariableOp"
  op: "Identity"
  input: "tinyLPR/mobile_net_v3_small/bottle_neck_5/block/pw_in/conv2d_10/Conv2D/ReadVariableOp/resource"
  attr {
    key: "T"
    value {
      type: DT_FLOAT
    }
  }
}
node {
  name: "tinyLPR/mobile_net_v3_small/bottle_neck_5/block/pw_in/conv2d_10/Conv2D"
  op: "Conv2D"
  input: "tinyLPR/mobile_net_v3_small/bottle_neck_4/add_1/add"
  input: "tinyLPR/mobile_net_v3_small/bottle_neck_5/block/pw_in/conv2d_10/Conv2D/ReadVariableOp"
  attr {
    key: "T"
    value {
      type: DT_FLOAT
    }
  }
  attr {
    key: "data_format"
    value {
      s: "NHWC"
    }
  }
  attr {
    key: "dilations"
    value {
      list {
        i: 1
        i: 1
        i: 1
        i: 1
      }
    }
  }
  attr {
    key: "explicit_paddings"
    value {
      list {
      }
    }
  }
  attr {
    key: "padding"
    value {
      s: "SAME"
    }
  }
  attr {
    key: "strides"
    value {
      list {
        i: 1
        i: 1
        i: 1
        i: 1
      }
    }
  }
  attr {
    key: "use_cudnn_on_gpu"
    value {
      b: true
    }
  }
}
node {
  name: "tinyLPR/mobile_net_v3_small/bottle_neck_5/block/pw_in/batch_normalization_15/ReadVariableOp"
  op: "Identity"
  input: "tinyLPR/mobile_net_v3_small/bottle_neck_5/block/pw_in/batch_normalization_15/ReadVariableOp/resource"
  attr {
    key: "T"
    value {
      type: DT_FLOAT
    }
  }
}
node {
  name: "tinyLPR/mobile_net_v3_small/bottle_neck_5/block/pw_in/batch_normalization_15/ReadVariableOp_1"
  op: "Identity"
  input: "tinyLPR/mobile_net_v3_small/bottle_neck_5/block/pw_in/batch_normalization_15/ReadVariableOp_1/resource"
  attr {
    key: "T"
    value {
      type: DT_FLOAT
    }
  }
}
node {
  name: "tinyLPR/mobile_net_v3_small/bottle_neck_5/block/pw_in/batch_normalization_15/FusedBatchNormV3/ReadVariableOp"
  op: "Identity"
  input: "tinyLPR/mobile_net_v3_small/bottle_neck_5/block/pw_in/batch_normalization_15/FusedBatchNormV3/ReadVariableOp/resource"
  attr {
    key: "T"
    value {
      type: DT_FLOAT
    }
  }
}
node {
  name: "tinyLPR/mobile_net_v3_small/bottle_neck_5/block/pw_in/batch_normalization_15/FusedBatchNormV3/ReadVariableOp_1"
  op: "Identity"
  input: "tinyLPR/mobile_net_v3_small/bottle_neck_5/block/pw_in/batch_normalization_15/FusedBatchNormV3/ReadVariableOp_1/resource"
  attr {
    key: "T"
    value {
      type: DT_FLOAT
    }
  }
}
node {
  name: "tinyLPR/mobile_net_v3_small/bottle_neck_5/block/pw_in/batch_normalization_15/FusedBatchNormV3"
  op: "FusedBatchNormV3"
  input: "tinyLPR/mobile_net_v3_small/bottle_neck_5/block/pw_in/conv2d_10/Conv2D"
  input: "tinyLPR/mobile_net_v3_small/bottle_neck_5/block/pw_in/batch_normalization_15/ReadVariableOp"
  input: "tinyLPR/mobile_net_v3_small/bottle_neck_5/block/pw_in/batch_normalization_15/ReadVariableOp_1"
  input: "tinyLPR/mobile_net_v3_small/bottle_neck_5/block/pw_in/batch_normalization_15/FusedBatchNormV3/ReadVariableOp"
  input: "tinyLPR/mobile_net_v3_small/bottle_neck_5/block/pw_in/batch_normalization_15/FusedBatchNormV3/ReadVariableOp_1"
  attr {
    key: "T"
    value {
      type: DT_FLOAT
    }
  }
  attr {
    key: "U"
    value {
      type: DT_FLOAT
    }
  }
  attr {
    key: "data_format"
    value {
      s: "NHWC"
    }
  }
  attr {
    key: "epsilon"
    value {
      f: 0.0010000000474974513
    }
  }
  attr {
    key: "exponential_avg_factor"
    value {
      f: 1.0
    }
  }
  attr {
    key: "is_training"
    value {
      b: false
    }
  }
}
node {
  name: "tinyLPR/mobile_net_v3_small/bottle_neck_5/block/pw_in/activation_10/Relu6"
  op: "Relu6"
  input: "tinyLPR/mobile_net_v3_small/bottle_neck_5/block/pw_in/batch_normalization_15/FusedBatchNormV3"
  attr {
    key: "T"
    value {
      type: DT_FLOAT
    }
  }
}
node {
  name: "tinyLPR/mobile_net_v3_small/bottle_neck_5/block/dw/depthwise_conv2d_5/depthwise/ReadVariableOp"
  op: "Identity"
  input: "tinyLPR/mobile_net_v3_small/bottle_neck_5/block/dw/depthwise_conv2d_5/depthwise/ReadVariableOp/resource"
  attr {
    key: "T"
    value {
      type: DT_FLOAT
    }
  }
}
node {
  name: "tinyLPR/mobile_net_v3_small/bottle_neck_5/block/dw/depthwise_conv2d_5/depthwise"
  op: "DepthwiseConv2dNative"
  input: "tinyLPR/mobile_net_v3_small/bottle_neck_5/block/pw_in/activation_10/Relu6"
  input: "tinyLPR/mobile_net_v3_small/bottle_neck_5/block/dw/depthwise_conv2d_5/depthwise/ReadVariableOp"
  attr {
    key: "T"
    value {
      type: DT_FLOAT
    }
  }
  attr {
    key: "data_format"
    value {
      s: "NHWC"
    }
  }
  attr {
    key: "dilations"
    value {
      list {
        i: 1
        i: 1
        i: 1
        i: 1
      }
    }
  }
  attr {
    key: "explicit_paddings"
    value {
      list {
      }
    }
  }
  attr {
    key: "padding"
    value {
      s: "SAME"
    }
  }
  attr {
    key: "strides"
    value {
      list {
        i: 1
        i: 1
        i: 1
        i: 1
      }
    }
  }
}
node {
  name: "tinyLPR/mobile_net_v3_small/bottle_neck_5/block/dw/batch_normalization_16/ReadVariableOp"
  op: "Identity"
  input: "tinyLPR/mobile_net_v3_small/bottle_neck_5/block/dw/batch_normalization_16/ReadVariableOp/resource"
  attr {
    key: "T"
    value {
      type: DT_FLOAT
    }
  }
}
node {
  name: "tinyLPR/mobile_net_v3_small/bottle_neck_5/block/dw/batch_normalization_16/ReadVariableOp_1"
  op: "Identity"
  input: "tinyLPR/mobile_net_v3_small/bottle_neck_5/block/dw/batch_normalization_16/ReadVariableOp_1/resource"
  attr {
    key: "T"
    value {
      type: DT_FLOAT
    }
  }
}
node {
  name: "tinyLPR/mobile_net_v3_small/bottle_neck_5/block/dw/batch_normalization_16/FusedBatchNormV3/ReadVariableOp"
  op: "Identity"
  input: "tinyLPR/mobile_net_v3_small/bottle_neck_5/block/dw/batch_normalization_16/FusedBatchNormV3/ReadVariableOp/resource"
  attr {
    key: "T"
    value {
      type: DT_FLOAT
    }
  }
}
node {
  name: "tinyLPR/mobile_net_v3_small/bottle_neck_5/block/dw/batch_normalization_16/FusedBatchNormV3/ReadVariableOp_1"
  op: "Identity"
  input: "tinyLPR/mobile_net_v3_small/bottle_neck_5/block/dw/batch_normalization_16/FusedBatchNormV3/ReadVariableOp_1/resource"
  attr {
    key: "T"
    value {
      type: DT_FLOAT
    }
  }
}
node {
  name: "tinyLPR/mobile_net_v3_small/bottle_neck_5/block/dw/batch_normalization_16/FusedBatchNormV3"
  op: "FusedBatchNormV3"
  input: "tinyLPR/mobile_net_v3_small/bottle_neck_5/block/dw/depthwise_conv2d_5/depthwise"
  input: "tinyLPR/mobile_net_v3_small/bottle_neck_5/block/dw/batch_normalization_16/ReadVariableOp"
  input: "tinyLPR/mobile_net_v3_small/bottle_neck_5/block/dw/batch_normalization_16/ReadVariableOp_1"
  input: "tinyLPR/mobile_net_v3_small/bottle_neck_5/block/dw/batch_normalization_16/FusedBatchNormV3/ReadVariableOp"
  input: "tinyLPR/mobile_net_v3_small/bottle_neck_5/block/dw/batch_normalization_16/FusedBatchNormV3/ReadVariableOp_1"
  attr {
    key: "T"
    value {
      type: DT_FLOAT
    }
  }
  attr {
    key: "U"
    value {
      type: DT_FLOAT
    }
  }
  attr {
    key: "data_format"
    value {
      s: "NHWC"
    }
  }
  attr {
    key: "epsilon"
    value {
      f: 0.0010000000474974513
    }
  }
  attr {
    key: "exponential_avg_factor"
    value {
      f: 1.0
    }
  }
  attr {
    key: "is_training"
    value {
      b: false
    }
  }
}
node {
  name: "tinyLPR/mobile_net_v3_small/bottle_neck_5/block/dw/activation_11/Relu6"
  op: "Relu6"
  input: "tinyLPR/mobile_net_v3_small/bottle_neck_5/block/dw/batch_normalization_16/FusedBatchNormV3"
  attr {
    key: "T"
    value {
      type: DT_FLOAT
    }
  }
}
node {
  name: "tinyLPR/mobile_net_v3_small/bottle_neck_5/block/pw_out/conv2d_11/Conv2D/ReadVariableOp"
  op: "Identity"
  input: "tinyLPR/mobile_net_v3_small/bottle_neck_5/block/pw_out/conv2d_11/Conv2D/ReadVariableOp/resource"
  attr {
    key: "T"
    value {
      type: DT_FLOAT
    }
  }
}
node {
  name: "tinyLPR/mobile_net_v3_small/bottle_neck_5/block/pw_out/conv2d_11/Conv2D"
  op: "Conv2D"
  input: "tinyLPR/mobile_net_v3_small/bottle_neck_5/block/dw/activation_11/Relu6"
  input: "tinyLPR/mobile_net_v3_small/bottle_neck_5/block/pw_out/conv2d_11/Conv2D/ReadVariableOp"
  attr {
    key: "T"
    value {
      type: DT_FLOAT
    }
  }
  attr {
    key: "data_format"
    value {
      s: "NHWC"
    }
  }
  attr {
    key: "dilations"
    value {
      list {
        i: 1
        i: 1
        i: 1
        i: 1
      }
    }
  }
  attr {
    key: "explicit_paddings"
    value {
      list {
      }
    }
  }
  attr {
    key: "padding"
    value {
      s: "SAME"
    }
  }
  attr {
    key: "strides"
    value {
      list {
        i: 1
        i: 1
        i: 1
        i: 1
      }
    }
  }
  attr {
    key: "use_cudnn_on_gpu"
    value {
      b: true
    }
  }
}
node {
  name: "tinyLPR/mobile_net_v3_small/bottle_neck_5/block/pw_out/batch_normalization_17/ReadVariableOp"
  op: "Identity"
  input: "tinyLPR/mobile_net_v3_small/bottle_neck_5/block/pw_out/batch_normalization_17/ReadVariableOp/resource"
  attr {
    key: "T"
    value {
      type: DT_FLOAT
    }
  }
}
node {
  name: "tinyLPR/mobile_net_v3_small/bottle_neck_5/block/pw_out/batch_normalization_17/ReadVariableOp_1"
  op: "Identity"
  input: "tinyLPR/mobile_net_v3_small/bottle_neck_5/block/pw_out/batch_normalization_17/ReadVariableOp_1/resource"
  attr {
    key: "T"
    value {
      type: DT_FLOAT
    }
  }
}
node {
  name: "tinyLPR/mobile_net_v3_small/bottle_neck_5/block/pw_out/batch_normalization_17/FusedBatchNormV3/ReadVariableOp"
  op: "Identity"
  input: "tinyLPR/mobile_net_v3_small/bottle_neck_5/block/pw_out/batch_normalization_17/FusedBatchNormV3/ReadVariableOp/resource"
  attr {
    key: "T"
    value {
      type: DT_FLOAT
    }
  }
}
node {
  name: "tinyLPR/mobile_net_v3_small/bottle_neck_5/block/pw_out/batch_normalization_17/FusedBatchNormV3/ReadVariableOp_1"
  op: "Identity"
  input: "tinyLPR/mobile_net_v3_small/bottle_neck_5/block/pw_out/batch_normalization_17/FusedBatchNormV3/ReadVariableOp_1/resource"
  attr {
    key: "T"
    value {
      type: DT_FLOAT
    }
  }
}
node {
  name: "tinyLPR/mobile_net_v3_small/bottle_neck_5/block/pw_out/batch_normalization_17/FusedBatchNormV3"
  op: "FusedBatchNormV3"
  input: "tinyLPR/mobile_net_v3_small/bottle_neck_5/block/pw_out/conv2d_11/Conv2D"
  input: "tinyLPR/mobile_net_v3_small/bottle_neck_5/block/pw_out/batch_normalization_17/ReadVariableOp"
  input: "tinyLPR/mobile_net_v3_small/bottle_neck_5/block/pw_out/batch_normalization_17/ReadVariableOp_1"
  input: "tinyLPR/mobile_net_v3_small/bottle_neck_5/block/pw_out/batch_normalization_17/FusedBatchNormV3/ReadVariableOp"
  input: "tinyLPR/mobile_net_v3_small/bottle_neck_5/block/pw_out/batch_normalization_17/FusedBatchNormV3/ReadVariableOp_1"
  attr {
    key: "T"
    value {
      type: DT_FLOAT
    }
  }
  attr {
    key: "U"
    value {
      type: DT_FLOAT
    }
  }
  attr {
    key: "data_format"
    value {
      s: "NHWC"
    }
  }
  attr {
    key: "epsilon"
    value {
      f: 0.0010000000474974513
    }
  }
  attr {
    key: "exponential_avg_factor"
    value {
      f: 1.0
    }
  }
  attr {
    key: "is_training"
    value {
      b: false
    }
  }
}
node {
  name: "tinyLPR/mobile_net_v3_small/bottle_neck_5/add_2/add"
  op: "AddV2"
  input: "tinyLPR/mobile_net_v3_small/bottle_neck_5/block/pw_out/batch_normalization_17/FusedBatchNormV3"
  input: "tinyLPR/mobile_net_v3_small/bottle_neck_4/add_1/add"
  attr {
    key: "T"
    value {
      type: DT_FLOAT
    }
  }
}
node {
  name: "tinyLPR/mobile_net_v3_small/bottle_neck_6/block/pw_in/conv2d_12/Conv2D/ReadVariableOp"
  op: "Identity"
  input: "tinyLPR/mobile_net_v3_small/bottle_neck_6/block/pw_in/conv2d_12/Conv2D/ReadVariableOp/resource"
  attr {
    key: "T"
    value {
      type: DT_FLOAT
    }
  }
}
node {
  name: "tinyLPR/mobile_net_v3_small/bottle_neck_6/block/pw_in/conv2d_12/Conv2D"
  op: "Conv2D"
  input: "tinyLPR/mobile_net_v3_small/bottle_neck_5/add_2/add"
  input: "tinyLPR/mobile_net_v3_small/bottle_neck_6/block/pw_in/conv2d_12/Conv2D/ReadVariableOp"
  attr {
    key: "T"
    value {
      type: DT_FLOAT
    }
  }
  attr {
    key: "data_format"
    value {
      s: "NHWC"
    }
  }
  attr {
    key: "dilations"
    value {
      list {
        i: 1
        i: 1
        i: 1
        i: 1
      }
    }
  }
  attr {
    key: "explicit_paddings"
    value {
      list {
      }
    }
  }
  attr {
    key: "padding"
    value {
      s: "SAME"
    }
  }
  attr {
    key: "strides"
    value {
      list {
        i: 1
        i: 1
        i: 1
        i: 1
      }
    }
  }
  attr {
    key: "use_cudnn_on_gpu"
    value {
      b: true
    }
  }
}
node {
  name: "tinyLPR/mobile_net_v3_small/bottle_neck_6/block/pw_in/batch_normalization_18/ReadVariableOp"
  op: "Identity"
  input: "tinyLPR/mobile_net_v3_small/bottle_neck_6/block/pw_in/batch_normalization_18/ReadVariableOp/resource"
  attr {
    key: "T"
    value {
      type: DT_FLOAT
    }
  }
}
node {
  name: "tinyLPR/mobile_net_v3_small/bottle_neck_6/block/pw_in/batch_normalization_18/ReadVariableOp_1"
  op: "Identity"
  input: "tinyLPR/mobile_net_v3_small/bottle_neck_6/block/pw_in/batch_normalization_18/ReadVariableOp_1/resource"
  attr {
    key: "T"
    value {
      type: DT_FLOAT
    }
  }
}
node {
  name: "tinyLPR/mobile_net_v3_small/bottle_neck_6/block/pw_in/batch_normalization_18/FusedBatchNormV3/ReadVariableOp"
  op: "Identity"
  input: "tinyLPR/mobile_net_v3_small/bottle_neck_6/block/pw_in/batch_normalization_18/FusedBatchNormV3/ReadVariableOp/resource"
  attr {
    key: "T"
    value {
      type: DT_FLOAT
    }
  }
}
node {
  name: "tinyLPR/mobile_net_v3_small/bottle_neck_6/block/pw_in/batch_normalization_18/FusedBatchNormV3/ReadVariableOp_1"
  op: "Identity"
  input: "tinyLPR/mobile_net_v3_small/bottle_neck_6/block/pw_in/batch_normalization_18/FusedBatchNormV3/ReadVariableOp_1/resource"
  attr {
    key: "T"
    value {
      type: DT_FLOAT
    }
  }
}
node {
  name: "tinyLPR/mobile_net_v3_small/bottle_neck_6/block/pw_in/batch_normalization_18/FusedBatchNormV3"
  op: "FusedBatchNormV3"
  input: "tinyLPR/mobile_net_v3_small/bottle_neck_6/block/pw_in/conv2d_12/Conv2D"
  input: "tinyLPR/mobile_net_v3_small/bottle_neck_6/block/pw_in/batch_normalization_18/ReadVariableOp"
  input: "tinyLPR/mobile_net_v3_small/bottle_neck_6/block/pw_in/batch_normalization_18/ReadVariableOp_1"
  input: "tinyLPR/mobile_net_v3_small/bottle_neck_6/block/pw_in/batch_normalization_18/FusedBatchNormV3/ReadVariableOp"
  input: "tinyLPR/mobile_net_v3_small/bottle_neck_6/block/pw_in/batch_normalization_18/FusedBatchNormV3/ReadVariableOp_1"
  attr {
    key: "T"
    value {
      type: DT_FLOAT
    }
  }
  attr {
    key: "U"
    value {
      type: DT_FLOAT
    }
  }
  attr {
    key: "data_format"
    value {
      s: "NHWC"
    }
  }
  attr {
    key: "epsilon"
    value {
      f: 0.0010000000474974513
    }
  }
  attr {
    key: "exponential_avg_factor"
    value {
      f: 1.0
    }
  }
  attr {
    key: "is_training"
    value {
      b: false
    }
  }
}
node {
  name: "tinyLPR/mobile_net_v3_small/bottle_neck_6/block/pw_in/activation_12/Relu6"
  op: "Relu6"
  input: "tinyLPR/mobile_net_v3_small/bottle_neck_6/block/pw_in/batch_normalization_18/FusedBatchNormV3"
  attr {
    key: "T"
    value {
      type: DT_FLOAT
    }
  }
}
node {
  name: "tinyLPR/mobile_net_v3_small/bottle_neck_6/block/dw/depthwise_conv2d_6/depthwise/ReadVariableOp"
  op: "Identity"
…
  input: "tinyLPR/mobile_net_v3_small/bottle_neck_7/block/pw_in/batch_normalization_21/FusedBatchNormV3/ReadVariableOp"
  input: "tinyLPR/mobile_net_v3_small/bottle_neck_7/block/pw_in/batch_normalization_21/FusedBatchNormV3/ReadVariableOp_1"
  attr {
    key: "T"
    value {
      type: DT_FLOAT
    }
  }
  attr {
    key: "U"
    value {
      type: DT_FLOAT
    }
  }
  attr {
    key: "data_format"
    value {
      s: "NHWC"
    }
  }
  attr {
    key: "epsilon"
    value {
      f: 0.0010000000474974513
    }
  }
  attr {
    key: "exponential_avg_factor"
    value {
      f: 1.0
    }
  }
  attr {
    key: "is_training"
    value {
      b: false
    }
  }
}
node {
  name: "tinyLPR/mobile_net_v3_small/bottle_neck_7/block/pw_in/activation_14/Relu6"
  op: "Relu6"
  input: "tinyLPR/mobile_net_v3_small/bottle_neck_7/block/pw_in/batch_normalization_21/FusedBatchNormV3"
  attr {
    key: "T"
    value {
      type: DT_FLOAT
    }
  }
}
node {
  name: "tinyLPR/mobile_net_v3_small/bottle_neck_7/block/dw/depthwise_conv2d_7/depthwise/ReadVariableOp"
  op: "Identity"
  input: "tinyLPR/mobile_net_v3_small/bottle_neck_7/block/dw/depthwise_conv2d_7/depthwise/ReadVariableOp/resource"
  attr {
    key: "T"
    value {
      type: DT_FLOAT
    }
  }
}
node {
  name: "tinyLPR/mobile_net_v3_small/bottle_neck_7/block/dw/depthwise_conv2d_7/depthwise"
  op: "DepthwiseConv2dNative"
  input: "tinyLPR/mobile_net_v3_small/bottle_neck_7/block/pw_in/activation_14/Relu6"
  input: "tinyLPR/mobile_net_v3_small/bottle_neck_7/block/dw/depthwise_conv2d_7/depthwise/ReadVariableOp"
  attr {
    key: "T"
    value {
      type: DT_FLOAT
    }
  }
  attr {
    key: "data_format"
    value {
      s: "NHWC"
    }
  }
  attr {
    key: "dilations"
    value {
      list {
        i: 1
        i: 1
        i: 1
        i: 1
      }
    }
  }
  attr {
    key: "explicit_paddings"
    value {
      list {
      }
    }
  }
  attr {
    key: "padding"
    value {
      s: "SAME"
    }
  }
  attr {
    key: "strides"
    value {
      list {
        i: 1
        i: 1
        i: 1
        i: 1
      }
    }
  }
}
node {
  name: "tinyLPR/mobile_net_v3_small/bottle_neck_7/block/dw/batch_normalization_22/ReadVariableOp"
  op: "Identity"
  input: "tinyLPR/mobile_net_v3_small/bottle_neck_7/block/dw/batch_normalization_22/ReadVariableOp/resource"
  attr {
    key: "T"
    value {
      type: DT_FLOAT
    }
  }
}
node {
  name: "tinyLPR/mobile_net_v3_small/bottle_neck_7/block/dw/batch_normalization_22/ReadVariableOp_1"
  op: "Identity"
  input: "tinyLPR/mobile_net_v3_small/bottle_neck_7/block/dw/batch_normalization_22/ReadVariableOp_1/resource"
  attr {
    key: "T"
    value {
      type: DT_FLOAT
    }
  }
}
node {
  name: "tinyLPR/mobile_net_v3_small/bottle_neck_7/block/dw/batch_normalization_22/FusedBatchNormV3/ReadVariableOp"
  op: "Identity"
  input: "tinyLPR/mobile_net_v3_small/bottle_neck_7/block/dw/batch_normalization_22/FusedBatchNormV3/ReadVariableOp/resource"
  attr {
    key: "T"
    value {
      type: DT_FLOAT
    }
  }
}
node {
  name: "tinyLPR/mobile_net_v3_small/bottle_neck_7/block/dw/batch_normalization_22/FusedBatchNormV3/ReadVariableOp_1"
  op: "Identity"
  input: "tinyLPR/mobile_net_v3_small/bottle_neck_7/block/dw/batch_normalization_22/FusedBatchNormV3/ReadVariableOp_1/resource"
  attr {
    key: "T"
    value {
      type: DT_FLOAT
    }
  }
}
node {
  name: "tinyLPR/mobile_net_v3_small/bottle_neck_7/block/dw/batch_normalization_22/FusedBatchNormV3"
  op: "FusedBatchNormV3"
  input: "tinyLPR/mobile_net_v3_small/bottle_neck_7/block/dw/depthwise_conv2d_7/depthwise"
  input: "tinyLPR/mobile_net_v3_small/bottle_neck_7/block/dw/batch_normalization_22/ReadVariableOp"
  input: "tinyLPR/mobile_net_v3_small/bottle_neck_7/block/dw/batch_normalization_22/ReadVariableOp_1"
  input: "tinyLPR/mobile_net_v3_small/bottle_neck_7/block/dw/batch_normalization_22/FusedBatchNormV3/ReadVariableOp"
  input: "tinyLPR/mobile_net_v3_small/bottle_neck_7/block/dw/batch_normalization_22/FusedBatchNormV3/ReadVariableOp_1"
  attr {
    key: "T"
    value {
      type: DT_FLOAT
    }
  }
  attr {
    key: "U"
    value {
      type: DT_FLOAT
    }
  }
  attr {
    key: "data_format"
    value {
      s: "NHWC"
    }
  }
  attr {
    key: "epsilon"
    value {
      f: 0.0010000000474974513
    }
  }
  attr {
    key: "exponential_avg_factor"
    value {
      f: 1.0
    }
  }
  attr {
    key: "is_training"
    value {
      b: false
    }
  }
}
node {
  name: "tinyLPR/mobile_net_v3_small/bottle_neck_7/block/dw/activation_15/Relu6"
  op: "Relu6"
  input: "tinyLPR/mobile_net_v3_small/bottle_neck_7/block/dw/batch_normalization_22/FusedBatchNormV3"
  attr {
    key: "T"
    value {
      type: DT_FLOAT
    }
  }
}
node {
  name: "tinyLPR/mobile_net_v3_small/bottle_neck_7/block/pw_out/conv2d_15/Conv2D/ReadVariableOp"
  op: "Identity"
  input: "tinyLPR/mobile_net_v3_small/bottle_neck_7/block/pw_out/conv2d_15/Conv2D/ReadVariableOp/resource"
  attr {
    key: "T"
    value {
      type: DT_FLOAT
    }
  }
}
node {
  name: "tinyLPR/mobile_net_v3_small/bottle_neck_7/block/pw_out/conv2d_15/Conv2D"
  op: "Conv2D"
  input: "tinyLPR/mobile_net_v3_small/bottle_neck_7/block/dw/activation_15/Relu6"
  input: "tinyLPR/mobile_net_v3_small/bottle_neck_7/block/pw_out/conv2d_15/Conv2D/ReadVariableOp"
  attr {
    key: "T"
    value {
      type: DT_FLOAT
    }
  }
  attr {
    key: "data_format"
    value {
      s: "NHWC"
    }
  }
  attr {
    key: "dilations"
    value {
      list {
        i: 1
        i: 1
        i: 1
        i: 1
      }
    }
  }
  attr {
    key: "explicit_paddings"
    value {
      list {
      }
    }
  }
  attr {
    key: "padding"
    value {
      s: "SAME"
    }
  }
  attr {
    key: "strides"
    value {
      list {
        i: 1
        i: 1
        i: 1
        i: 1
      }
    }
  }
  attr {
    key: "use_cudnn_on_gpu"
    value {
      b: true
    }
  }
}
node {
  name: "tinyLPR/mobile_net_v3_small/bottle_neck_7/block/pw_out/batch_normalization_23/ReadVariableOp"
  op: "Identity"
  input: "tinyLPR/mobile_net_v3_small/bottle_neck_7/block/pw_out/batch_normalization_23/ReadVariableOp/resource"
  attr {
    key: "T"
    value {
      type: DT_FLOAT
    }
  }
}
node {
  name: "tinyLPR/mobile_net_v3_small/bottle_neck_7/block/pw_out/batch_normalization_23/ReadVariableOp_1"
  op: "Identity"
  input: "tinyLPR/mobile_net_v3_small/bottle_neck_7/block/pw_out/batch_normalization_23/ReadVariableOp_1/resource"
  attr {
    key: "T"
    value {
      type: DT_FLOAT
    }
  }
}
node {
  name: "tinyLPR/mobile_net_v3_small/bottle_neck_7/block/pw_out/batch_normalization_23/FusedBatchNormV3/ReadVariableOp"
  op: "Identity"
  input: "tinyLPR/mobile_net_v3_small/bottle_neck_7/block/pw_out/batch_normalization_23/FusedBatchNormV3/ReadVariableOp/resource"
  attr {
    key: "T"
    value {
      type: DT_FLOAT
    }
  }
}
node {
  name: "tinyLPR/mobile_net_v3_small/bottle_neck_7/block/pw_out/batch_normalization_23/FusedBatchNormV3/ReadVariableOp_1"
  op: "Identity"
  input: "tinyLPR/mobile_net_v3_small/bottle_neck_7/block/pw_out/batch_normalization_23/FusedBatchNormV3/ReadVariableOp_1/resource"
  attr {
    key: "T"
    value {
      type: DT_FLOAT
    }
  }
}
node {
  name: "tinyLPR/mobile_net_v3_small/bottle_neck_7/block/pw_out/batch_normalization_23/FusedBatchNormV3"
  op: "FusedBatchNormV3"
  input: "tinyLPR/mobile_net_v3_small/bottle_neck_7/block/pw_out/conv2d_15/Conv2D"
  input: "tinyLPR/mobile_net_v3_small/bottle_neck_7/block/pw_out/batch_normalization_23/ReadVariableOp"
  input: "tinyLPR/mobile_net_v3_small/bottle_neck_7/block/pw_out/batch_normalization_23/ReadVariableOp_1"
  input: "tinyLPR/mobile_net_v3_small/bottle_neck_7/block/pw_out/batch_normalization_23/FusedBatchNormV3/ReadVariableOp"
  input: "tinyLPR/mobile_net_v3_small/bottle_neck_7/block/pw_out/batch_normalization_23/FusedBatchNormV3/ReadVariableOp_1"
  attr {
    key: "T"
    value {
      type: DT_FLOAT
    }
  }
  attr {
    key: "U"
    value {
      type: DT_FLOAT
    }
  }
  attr {
    key: "data_format"
    value {
      s: "NHWC"
    }
  }
  attr {
    key: "epsilon"
    value {
      f: 0.0010000000474974513
    }
  }
  attr {
    key: "exponential_avg_factor"
    value {
      f: 1.0
    }
  }
  attr {
    key: "is_training"
    value {
      b: false
    }
  }
}
node {
  name: "tinyLPR/mobile_net_v3_small/bottle_neck_7/add_3/add"
  op: "AddV2"
  input: "tinyLPR/mobile_net_v3_small/bottle_neck_7/block/pw_out/batch_normalization_23/FusedBatchNormV3"
  input: "tinyLPR/mobile_net_v3_small/bottle_neck_6/block/pw_out/batch_normalization_20/FusedBatchNormV3"
  attr {
    key: "T"
    value {
      type: DT_FLOAT
    }
  }
}
node {
  name: "tinyLPR/mobile_net_v3_small/bottle_neck_8/block/pw_in/conv2d_16/Conv2D/ReadVariableOp"
  op: "Identity"
  input: "tinyLPR/mobile_net_v3_small/bottle_neck_8/block/pw_in/conv2d_16/Conv2D/ReadVariableOp/resource"
  attr {
    key: "T"
    value {
      type: DT_FLOAT
    }
  }
}
node {
  name: "tinyLPR/mobile_net_v3_small/bottle_neck_8/block/pw_in/conv2d_16/Conv2D"
  op: "Conv2D"
  input: "tinyLPR/mobile_net_v3_small/bottle_neck_7/add_3/add"
  input: "tinyLPR/mobile_net_v3_small/bottle_neck_8/block/pw_in/conv2d_16/Conv2D/ReadVariableOp"
  attr {
    key: "T"
    value {
      type: DT_FLOAT
    }
  }
  attr {
    key: "data_format"
    value {
      s: "NHWC"
    }
  }
  attr {
    key: "dilations"
    value {
      list {
        i: 1
        i: 1
        i: 1
        i: 1
      }
    }
  }
  attr {
    key: "explicit_paddings"
    value {
      list {
      }
    }
  }
  attr {
    key: "padding"
    value {
      s: "SAME"
    }
  }
  attr {
    key: "strides"
    value {
      list {
        i: 1
        i: 1
        i: 1
        i: 1
      }
    }
  }
  attr {
    key: "use_cudnn_on_gpu"
    value {
      b: true
    }
  }
}
node {
  name: "tinyLPR/mobile_net_v3_small/bottle_neck_8/block/pw_in/batch_normalization_24/ReadVariableOp"
  op: "Identity"
  input: "tinyLPR/mobile_net_v3_small/bottle_neck_8/block/pw_in/batch_normalization_24/ReadVariableOp/resource"
  attr {
    key: "T"
    value {
      type: DT_FLOAT
    }
  }
}
node {
  name: "tinyLPR/mobile_net_v3_small/bottle_neck_8/block/pw_in/batch_normalization_24/ReadVariableOp_1"
  op: "Identity"
  input: "tinyLPR/mobile_net_v3_small/bottle_neck_8/block/pw_in/batch_normalization_24/ReadVariableOp_1/resource"
  attr {
    key: "T"
    value {
      type: DT_FLOAT
    }
  }
}
node {
  name: "tinyLPR/mobile_net_v3_small/bottle_neck_8/block/pw_in/batch_normalization_24/FusedBatchNormV3/ReadVariableOp"
  op: "Identity"
  input: "tinyLPR/mobile_net_v3_small/bottle_neck_8/block/pw_in/batch_normalization_24/FusedBatchNormV3/ReadVariableOp/resource"
  attr {
    key: "T"
    value {
      type: DT_FLOAT
    }
  }
}
node {
  name: "tinyLPR/mobile_net_v3_small/bottle_neck_8/block/pw_in/batch_normalization_24/FusedBatchNormV3/ReadVariableOp_1"
  op: "Identity"
  input: "tinyLPR/mobile_net_v3_small/bottle_neck_8/block/pw_in/batch_normalization_24/FusedBatchNormV3/ReadVariableOp_1/resource"
  attr {
    key: "T"
    value {
      type: DT_FLOAT
    }
  }
}
node {
  name: "tinyLPR/mobile_net_v3_small/bottle_neck_8/block/pw_in/batch_normalization_24/FusedBatchNormV3"
  op: "FusedBatchNormV3"
  input: "tinyLPR/mobile_net_v3_small/bottle_neck_8/block/pw_in/conv2d_16/Conv2D"
  input: "tinyLPR/mobile_net_v3_small/bottle_neck_8/block/pw_in/batch_normalization_24/ReadVariableOp"
  input: "tinyLPR/mobile_net_v3_small/bottle_neck_8/block/pw_in/batch_normalization_24/ReadVariableOp_1"
  input: "tinyLPR/mobile_net_v3_small/bottle_neck_8/block/pw_in/batch_normalization_24/FusedBatchNormV3/ReadVariableOp"
  input: "tinyLPR/mobile_net_v3_small/bottle_neck_8/block/pw_in/batch_normalization_24/FusedBatchNormV3/ReadVariableOp_1"
  attr {
    key: "T"
    value {
      type: DT_FLOAT
    }
  }
  attr {
    key: "U"
    value {
      type: DT_FLOAT
    }
  }
  attr {
    key: "data_format"
    value {
      s: "NHWC"
    }
  }
  attr {
    key: "epsilon"
    value {
      f: 0.0010000000474974513
    }
  }
  attr {
    key: "exponential_avg_factor"
    value {
      f: 1.0
    }
  }
  attr {
    key: "is_training"
    value {
      b: false
    }
  }
}
node {
  name: "tinyLPR/mobile_net_v3_small/bottle_neck_8/block/pw_in/activation_16/Relu6"
  op: "Relu6"
  input: "tinyLPR/mobile_net_v3_small/bottle_neck_8/block/pw_in/batch_normalization_24/FusedBatchNormV3"
  attr {
    key: "T"
    value {
      type: DT_FLOAT
    }
  }
}
node {
  name: "tinyLPR/mobile_net_v3_small/bottle_neck_8/block/dw/depthwise_conv2d_8/depthwise/ReadVariableOp"
  op: "Identity"
  input: "tinyLPR/mobile_net_v3_small/bottle_neck_8/block/dw/depthwise_conv2d_8/depthwise/ReadVariableOp/resource"
  attr {
    key: "T"
    value {
      type: DT_FLOAT
    }
  }
}
node {
  name: "tinyLPR/mobile_net_v3_small/bottle_neck_8/block/dw/depthwise_conv2d_8/depthwise"
  op: "DepthwiseConv2dNative"
  input: "tinyLPR/mobile_net_v3_small/bottle_neck_8/block/pw_in/activation_16/Relu6"
  input: "tinyLPR/mobile_net_v3_small/bottle_neck_8/block/dw/depthwise_conv2d_8/depthwise/ReadVariableOp"
  attr {
    key: "T"
    value {
      type: DT_FLOAT
    }
  }
  attr {
    key: "data_format"
    value {
      s: "NHWC"
    }
  }
  attr {
    key: "dilations"
    value {
      list {
        i: 1
        i: 1
        i: 1
        i: 1
      }
    }
  }
  attr {
    key: "explicit_paddings"
    value {
      list {
      }
    }
  }
  attr {
    key: "padding"
    value {
      s: "SAME"
    }
  }
  attr {
    key: "strides"
    value {
      list {
        i: 1
        i: 2
        i: 2
        i: 1
      }
    }
  }
}
node {
  name: "tinyLPR/mobile_net_v3_small/bottle_neck_8/block/dw/batch_normalization_25/ReadVariableOp"
  op: "Identity"
  input: "tinyLPR/mobile_net_v3_small/bottle_neck_8/block/dw/batch_normalization_25/ReadVariableOp/resource"
  attr {
    key: "T"
    value {
      type: DT_FLOAT
    }
  }
}
node {
  name: "tinyLPR/mobile_net_v3_small/bottle_neck_8/block/dw/batch_normalization_25/ReadVariableOp_1"
  op: "Identity"
  input: "tinyLPR/mobile_net_v3_small/bottle_neck_8/block/dw/batch_normalization_25/ReadVariableOp_1/resource"
  attr {
    key: "T"
    value {
      type: DT_FLOAT
    }
  }
}
node {
  name: "tinyLPR/mobile_net_v3_small/bottle_neck_8/block/dw/batch_normalization_25/FusedBatchNormV3/ReadVariableOp"
  op: "Identity"
  input: "tinyLPR/mobile_net_v3_small/bottle_neck_8/block/dw/batch_normalization_25/FusedBatchNormV3/ReadVariableOp/resource"
  attr {
    key: "T"
    value {
      type: DT_FLOAT
    }
  }
}
node {
  name: "tinyLPR/mobile_net_v3_small/bottle_neck_8/block/dw/batch_normalization_25/FusedBatchNormV3/ReadVariableOp_1"
  op: "Identity"
  input: "tinyLPR/mobile_net_v3_small/bottle_neck_8/block/dw/batch_normalization_25/FusedBatchNormV3/ReadVariableOp_1/resource"
  attr {
    key: "T"
    value {
      type: DT_FLOAT
    }
  }
}
node {
  name: "tinyLPR/mobile_net_v3_small/bottle_neck_8/block/dw/batch_normalization_25/FusedBatchNormV3"
  op: "FusedBatchNormV3"
  input: "tinyLPR/mobile_net_v3_small/bottle_neck_8/block/dw/depthwise_conv2d_8/depthwise"
  input: "tinyLPR/mobile_net_v3_small/bottle_neck_8/block/dw/batch_normalization_25/ReadVariableOp"
  input: "tinyLPR/mobile_net_v3_small/bottle_neck_8/block/dw/batch_normalization_25/ReadVariableOp_1"
  input: "tinyLPR/mobile_net_v3_small/bottle_neck_8/block/dw/batch_normalization_25/FusedBatchNormV3/ReadVariableOp"
  input: "tinyLPR/mobile_net_v3_small/bottle_neck_8/block/dw/batch_normalization_25/FusedBatchNormV3/ReadVariableOp_1"
  attr {
    key: "T"
    value {
      type: DT_FLOAT
    }
  }
  attr {
    key: "U"
    value {
      type: DT_FLOAT
    }
  }
  attr {
    key: "data_format"
    value {
      s: "NHWC"
    }
  }
  attr {
    key: "epsilon"
    value {
      f: 0.0010000000474974513
    }
  }
  attr {
    key: "exponential_avg_factor"
    value {
      f: 1.0
    }
  }
  attr {
    key: "is_training"
    value {
      b: false
    }
  }
}
node {
  name: "tinyLPR/mobile_net_v3_small/bottle_neck_8/block/dw/activation_17/Relu6"
  op: "Relu6"
  input: "tinyLPR/mobile_net_v3_small/bottle_neck_8/block/dw/batch_normalization_25/FusedBatchNormV3"
  attr {
    key: "T"
    value {
      type: DT_FLOAT
    }
  }
}
node {
  name: "tinyLPR/mobile_net_v3_small/bottle_neck_8/block/pw_out/conv2d_17/Conv2D/ReadVariableOp"
  op: "Identity"
  input: "tinyLPR/mobile_net_v3_small/bottle_neck_8/block/pw_out/conv2d_17/Conv2D/ReadVariableOp/resource"
  attr {
    key: "T"
    value {
      type: DT_FLOAT
    }
  }
}
node {
  name: "tinyLPR/mobile_net_v3_small/bottle_neck_8/block/pw_out/conv2d_17/Conv2D"
  op: "Conv2D"
  input: "tinyLPR/mobile_net_v3_small/bottle_neck_8/block/dw/activation_17/Relu6"
  input: "tinyLPR/mobile_net_v3_small/bottle_neck_8/block/pw_out/conv2d_17/Conv2D/ReadVariableOp"
  attr {
    key: "T"
    value {
      type: DT_FLOAT
    }
  }
  attr {
    key: "data_format"
    value {
      s: "NHWC"
    }
  }
  attr {
    key: "dilations"
    value {
      list {
        i: 1
        i: 1
        i: 1
        i: 1
      }
    }
  }
  attr {
    key: "explicit_paddings"
    value {
      list {
      }
    }
  }
  attr {
    key: "padding"
    value {
      s: "SAME"
    }
  }
  attr {
    key: "strides"
    value {
      list {
        i: 1
        i: 1
        i: 1
        i: 1
      }
    }
  }
  attr {
    key: "use_cudnn_on_gpu"
    value {
      b: true
    }
  }
}
node {
  name: "tinyLPR/mobile_net_v3_small/bottle_neck_8/block/pw_out/batch_normalization_26/ReadVariableOp"
  op: "Identity"
  input: "tinyLPR/mobile_net_v3_small/bottle_neck_8/block/pw_out/batch_normalization_26/ReadVariableOp/resource"
  attr {
    key: "T"
    value {
      type: DT_FLOAT
    }
  }
}
node {
  name: "tinyLPR/mobile_net_v3_small/bottle_neck_8/block/pw_out/batch_normalization_26/ReadVariableOp_1"
  op: "Identity"
  input: "tinyLPR/mobile_net_v3_small/bottle_neck_8/block/pw_out/batch_normalization_26/ReadVariableOp_1/resource"
  attr {
    key: "T"
    value {
      type: DT_FLOAT
    }
  }
}
node {
  name: "tinyLPR/mobile_net_v3_small/bottle_neck_8/block/pw_out/batch_normalization_26/FusedBatchNormV3/ReadVariableOp"
  op: "Identity"
  input: "tinyLPR/mobile_net_v3_small/bottle_neck_8/block/pw_out/batch_normalization_26/FusedBatchNormV3/ReadVariableOp/resource"
  attr {
    key: "T"
    value {
      type: DT_FLOAT
    }
  }
}
node {
  name: "tinyLPR/mobile_net_v3_small/bottle_neck_8/block/pw_out/batch_normalization_26/FusedBatchNormV3/ReadVariableOp_1"
  op: "Identity"
  input: "tinyLPR/mobile_net_v3_small/bottle_neck_8/block/pw_out/batch_normalization_26/FusedBatchNormV3/ReadVariableOp_1/resource"
  attr {
    key: "T"
    value {
      type: DT_FLOAT
    }
  }
}
node {
  name: "tinyLPR/mobile_net_v3_small/bottle_neck_8/block/pw_out/batch_normalization_26/FusedBatchNormV3"
  op: "FusedBatchNormV3"
  input: "tinyLPR/mobile_net_v3_small/bottle_neck_8/block/pw_out/conv2d_17/Conv2D"
  input: "tinyLPR/mobile_net_v3_small/bottle_neck_8/block/pw_out/batch_normalization_26/ReadVariableOp"
  input: "tinyLPR/mobile_net_v3_small/bottle_neck_8/block/pw_out/batch_normalization_26/ReadVariableOp_1"
  input: "tinyLPR/mobile_net_v3_small/bottle_neck_8/block/pw_out/batch_normalization_26/FusedBatchNormV3/ReadVariableOp"
  input: "tinyLPR/mobile_net_v3_small/bottle_neck_8/block/pw_out/batch_normalization_26/FusedBatchNormV3/ReadVariableOp_1"
  attr {
    key: "T"
    value {
      type: DT_FLOAT
    }
  }
  attr {
    key: "U"
    value {
      type: DT_FLOAT
    }
  }
  attr {
    key: "data_format"
    value {
      s: "NHWC"
    }
  }
  attr {
    key: "epsilon"
    value {
      f: 0.0010000000474974513
    }
  }
  attr {
    key: "exponential_avg_factor"
    value {
      f: 1.0
    }
  }
  attr {
    key: "is_training"
    value {
      b: false
    }
  }
}
node {
  name: "tinyLPR/upsample/mul"
  op: "Mul"
  input: "tinyLPR/upsample/Const"
  input: "tinyLPR/upsample/Const_1"
  attr {
    key: "T"
    value {
      type: DT_INT32
    }
  }
}
node {
  name: "tinyLPR/upsample/resize/ResizeBilinear"
  op: "ResizeBilinear"
  input: "tinyLPR/mobile_net_v3_small/bottle_neck_8/block/pw_out/batch_normalization_26/FusedBatchNormV3"
  input: "tinyLPR/upsample/mul"
  attr {
    key: "T"
    value {
      type: DT_FLOAT
    }
  }
  attr {
    key: "align_corners"
    value {
      b: false
    }
  }
  attr {
    key: "half_pixel_centers"
    value {
      b: true
    }
  }
}
node {
  name: "tinyLPR/tf.concat/concat"
  op: "ConcatV2"
  input: "tinyLPR/mobile_net_v3_small/bottle_neck_7/add_3/add"
  input: "tinyLPR/upsample/resize/ResizeBilinear"
  input: "tinyLPR/tf.concat/concat/axis"
  attr {
    key: "N"
    value {
      i: 2
    }
  }
  attr {
    key: "T"
    value {
      type: DT_FLOAT
    }
  }
  attr {
    key: "Tidx"
    value {
      type: DT_INT32
    }
  }
}
node {
  name: "tinyLPR/lraspp_f1/lraspp_conv_1x1_f1/Conv2D/ReadVariableOp"
  op: "Identity"
  input: "tinyLPR/lraspp_f1/lraspp_conv_1x1_f1/Conv2D/ReadVariableOp/resource"
  attr {
    key: "T"
    value {
      type: DT_FLOAT
    }
  }
}
node {
  name: "tinyLPR/lraspp_f1/lraspp_conv_1x1_f1/Conv2D"
  op: "Conv2D"
  input: "tinyLPR/tf.concat/concat"
  input: "tinyLPR/lraspp_f1/lraspp_conv_1x1_f1/Conv2D/ReadVariableOp"
  attr {
    key: "T"
    value {
      type: DT_FLOAT
    }
  }
  attr {
    key: "data_format"
    value {
      s: "NHWC"
    }
  }
  attr {
    key: "dilations"
    value {
      list {
        i: 1
        i: 1
        i: 1
        i: 1
      }
    }
  }
  attr {
    key: "explicit_paddings"
    value {
      list {
      }
    }
  }
  attr {
    key: "padding"
    value {
      s: "SAME"
    }
  }
  attr {
    key: "strides"
    value {
      list {
        i: 1
        i: 1
        i: 1
        i: 1
      }
    }
  }
  attr {
    key: "use_cudnn_on_gpu"
    value {
      b: true
    }
  }
}
node {
  name: "tinyLPR/lraspp_f1/lraspp_bn_f1/ReadVariableOp"
  op: "Identity"
  input: "tinyLPR/lraspp_f1/lraspp_bn_f1/ReadVariableOp/resource"
  attr {
    key: "T"
    value {
      type: DT_FLOAT
    }
  }
}
node {
  name: "tinyLPR/lraspp_f1/lraspp_bn_f1/ReadVariableOp_1"
  op: "Identity"
  input: "tinyLPR/lraspp_f1/lraspp_bn_f1/ReadVariableOp_1/resource"
  attr {
    key: "T"
    value {
      type: DT_FLOAT
    }
  }
}
node {
  name: "tinyLPR/lraspp_f1/lraspp_bn_f1/FusedBatchNormV3/ReadVariableOp"
  op: "Identity"
  input: "tinyLPR/lraspp_f1/lraspp_bn_f1/FusedBatchNormV3/ReadVariableOp/resource"
  attr {
    key: "T"
    value {
      type: DT_FLOAT
    }
  }
}
node {
  name: "tinyLPR/lraspp_f1/lraspp_bn_f1/FusedBatchNormV3/ReadVariableOp_1"
  op: "Identity"
  input: "tinyLPR/lraspp_f1/lraspp_bn_f1/FusedBatchNormV3/ReadVariableOp_1/resource"
  attr {
    key: "T"
    value {
      type: DT_FLOAT
    }
  }
}
node {
  name: "tinyLPR/lraspp_f1/lraspp_bn_f1/FusedBatchNormV3"
  op: "FusedBatchNormV3"
  input: "tinyLPR/lraspp_f1/lraspp_conv_1x1_f1/Conv2D"
  input: "tinyLPR/lraspp_f1/lraspp_bn_f1/ReadVariableOp"
  input: "tinyLPR/lraspp_f1/lraspp_bn_f1/ReadVariableOp_1"
  input: "tinyLPR/lraspp_f1/lraspp_bn_f1/FusedBatchNormV3/ReadVariableOp"
  input: "tinyLPR/lraspp_f1/lraspp_bn_f1/FusedBatchNormV3/ReadVariableOp_1"
  attr {
    key: "T"
    value {
      type: DT_FLOAT
    }
  }
  attr {
    key: "U"
    value {
      type: DT_FLOAT
    }
  }
  attr {
    key: "data_format"
    value {
      s: "NHWC"
    }
  }
  attr {
    key: "epsilon"
    value {
      f: 0.0010000000474974513
    }
  }
  attr {
    key: "exponential_avg_factor"
    value {
      f: 1.0
    }
  }
  attr {
    key: "is_training"
    value {
      b: false
    }
  }
}
node {
  name: "tinyLPR/lraspp_f1/lraspp_relu_f1/Relu"
  op: "Relu"
  input: "tinyLPR/lraspp_f1/lraspp_bn_f1/FusedBatchNormV3"
  attr {
    key: "T"
    value {
      type: DT_FLOAT
    }
  }
}
node {
  name: "tinyLPR/lraspp_f2/global_avg_pool/Mean"
  op: "Mean"
  input: "tinyLPR/tf.concat/concat"
  input: "tinyLPR/lraspp_f2/global_avg_pool/Mean/reduction_indices"
  attr {
    key: "T"
    value {
      type: DT_FLOAT
    }
  }
  attr {
    key: "Tidx"
    value {
      type: DT_INT32
    }
  }
  attr {
    key: "keep_dims"
    value {
      b: true
    }
  }
}
node {
  name: "tinyLPR/lraspp_f2/lraspp_conv_1x1_f2/Conv2D/ReadVariableOp"
  op: "Identity"
  input: "tinyLPR/lraspp_f2/lraspp_conv_1x1_f2/Conv2D/ReadVariableOp/resource"
  attr {
    key: "T"
    value {
      type: DT_FLOAT
    }
  }
}
node {
  name: "tinyLPR/lraspp_f2/lraspp_conv_1x1_f2/Conv2D"
  op: "Conv2D"
  input: "tinyLPR/lraspp_f2/global_avg_pool/Mean"
  input: "tinyLPR/lraspp_f2/lraspp_conv_1x1_f2/Conv2D/ReadVariableOp"
  attr {
    key: "T"
    value {
      type: DT_FLOAT
    }
  }
  attr {
    key: "data_format"
    value {
      s: "NHWC"
    }
  }
  attr {
    key: "dilations"
    value {
      list {
        i: 1
        i: 1
        i: 1
        i: 1
      }
    }
  }
  attr {
    key: "explicit_paddings"
    value {
      list {
      }
    }
  }
  attr {
    key: "padding"
    value {
      s: "SAME"
    }
  }
  attr {
    key: "strides"
    value {
      list {
        i: 1
        i: 1
        i: 1
        i: 1
      }
    }
  }
  attr {
    key: "use_cudnn_on_gpu"
    value {
      b: true
    }
  }
}
node {
  name: "tinyLPR/lraspp_f2/lraspp_conv_1x1_f2/BiasAdd/ReadVariableOp"
  op: "Identity"
  input: "tinyLPR/lraspp_f2/lraspp_conv_1x1_f2/BiasAdd/ReadVariableOp/resource"
  attr {
    key: "T"
    value {
      type: DT_FLOAT
    }
  }
}
node {
  name: "tinyLPR/lraspp_f2/lraspp_conv_1x1_f2/BiasAdd"
  op: "BiasAdd"
  input: "tinyLPR/lraspp_f2/lraspp_conv_1x1_f2/Conv2D"
  input: "tinyLPR/lraspp_f2/lraspp_conv_1x1_f2/BiasAdd/ReadVariableOp"
  attr {
    key: "T"
    value {
      type: DT_FLOAT
    }
  }
  attr {
    key: "data_format"
    value {
      s: "NHWC"
    }
  }
}
node {
  name: "tinyLPR/lraspp_f2/lraspp_sigmoid_f2/Sigmoid"
  op: "Sigmoid"
  input: "tinyLPR/lraspp_f2/lraspp_conv_1x1_f2/BiasAdd"
  attr {
    key: "T"
    value {
      type: DT_FLOAT
    }
  }
}
node {
  name: "tinyLPR/lraspp_f2/lraspp_up8x/mul"
  op: "Mul"
  input: "tinyLPR/lraspp_f2/lraspp_up8x/Const"
  input: "tinyLPR/lraspp_f2/lraspp_up8x/Const_1"
  attr {
    key: "T"
    value {
      type: DT_INT32
    }
  }
}
node {
  name: "tinyLPR/lraspp_f2/lraspp_up8x/resize/ResizeBilinear"
  op: "ResizeBilinear"
  input: "tinyLPR/lraspp_f2/lraspp_sigmoid_f2/Sigmoid"
  input: "tinyLPR/lraspp_f2/lraspp_up8x/mul"
  attr {
    key: "T"
    value {
      type: DT_FLOAT
    }
  }
  attr {
    key: "align_corners"
    value {
      b: false
    }
  }
  attr {
    key: "half_pixel_centers"
    value {
      b: true
    }
  }
}
node {
  name: "tinyLPR/tf.math.multiply/Mul"
  op: "Mul"
  input: "tinyLPR/lraspp_f1/lraspp_relu_f1/Relu"
  input: "tinyLPR/lraspp_f2/lraspp_up8x/resize/ResizeBilinear"
  attr {
    key: "T"
    value {
      type: DT_FLOAT
    }
  }
}
node {
  name: "tinyLPR/tf.math.add/Add"
  op: "AddV2"
  input: "tinyLPR/c1_conv/BiasAdd"
  input: "tinyLPR/tf.math.multiply/Mul"
  attr {
    key: "T"
    value {
      type: DT_FLOAT
    }
  }
}
node {
  name: "tinyLPR/tf.__operators__.getitem/strided_slice"
  op: "StridedSlice"
  input: "tinyLPR/tf.compat.v1.shape/Shape"
  input: "tinyLPR/tf.__operators__.getitem/strided_slice/stack"
  input: "tinyLPR/tf.__operators__.getitem/strided_slice/stack_1"
  input: "tinyLPR/tf.__operators__.getitem/strided_slice/stack_2"
  attr {
    key: "Index"
    value {
      type: DT_INT32
    }
  }
  attr {
    key: "T"
    value {
      type: DT_INT32
    }
  }
  attr {
    key: "begin_mask"
    value {
      i: 0
    }
  }
  attr {
    key: "ellipsis_mask"
    value {
      i: 0
    }
  }
  attr {
    key: "end_mask"
    value {
      i: 0
    }
  }
  attr {
    key: "new_axis_mask"
    value {
      i: 0
    }
  }
  attr {
    key: "shrink_axis_mask"
    value {
      i: 1
    }
  }
}
node {
  name: "tinyLPR/tf.reshape/Reshape/shape"
  op: "Pack"
  input: "tinyLPR/tf.__operators__.getitem/strided_slice"
  input: "tinyLPR/tf.reshape/Reshape/shape/1"
  input: "tinyLPR/tf.reshape/Reshape/shape/2"
  attr {
    key: "N"
    value {
      i: 3
    }
  }
  attr {
    key: "T"
    value {
      type: DT_INT32
    }
  }
  attr {
    key: "axis"
    value {
      i: 0
    }
  }
}
node {
  name: "tinyLPR/tf.reshape/Reshape"
  op: "Reshape"
  input: "tinyLPR/tf.math.add/Add"
  input: "tinyLPR/tf.reshape/Reshape/shape"
  attr {
    key: "T"
    value {
      type: DT_FLOAT
    }
  }
  attr {
    key: "Tshape"
    value {
      type: DT_INT32
    }
  }
}
node {
  name: "tinyLPR/dense_softmax/dense_softmax/Tensordot/Reshape"
  op: "Reshape"
  input: "tinyLPR/tf.reshape/Reshape"
  input: "tinyLPR/dense_softmax/dense_softmax/Tensordot/Reshape/shape"
  attr {
    key: "T"
    value {
      type: DT_FLOAT
    }
  }
  attr {
    key: "Tshape"
    value {
      type: DT_INT32
    }
  }
}
node {
  name: "tinyLPR/dense_softmax/dense_softmax/Tensordot/ReadVariableOp"
  op: "Identity"
  input: "tinyLPR/dense_softmax/dense_softmax/Tensordot/ReadVariableOp/resource"
  attr {
    key: "T"
    value {
      type: DT_FLOAT
    }
  }
}
node {
  name: "tinyLPR/dense_softmax/dense_softmax/Tensordot/MatMul"
  op: "MatMul"
  input: "tinyLPR/dense_softmax/dense_softmax/Tensordot/Reshape"
  input: "tinyLPR/dense_softmax/dense_softmax/Tensordot/ReadVariableOp"
  attr {
    key: "T"
    value {
      type: DT_FLOAT
    }
  }
  attr {
    key: "transpose_a"
    value {
      b: false
    }
  }
  attr {
    key: "transpose_b"
    value {
      b: false
    }
  }
}
node {
  name: "tinyLPR/dense_softmax/dense_softmax/Tensordot"
  op: "Reshape"
  input: "tinyLPR/dense_softmax/dense_softmax/Tensordot/MatMul"
  input: "tinyLPR/dense_softmax/dense_softmax/Tensordot/shape"
  attr {
    key: "T"
    value {
      type: DT_FLOAT
    }
  }
  attr {
    key: "Tshape"
    value {
      type: DT_INT32
    }
  }
}
node {
  name: "tinyLPR/dense_softmax/dense_softmax/BiasAdd/ReadVariableOp"
  op: "Identity"
  input: "tinyLPR/dense_softmax/dense_softmax/BiasAdd/ReadVariableOp/resource"
  attr {
    key: "T"
    value {
      type: DT_FLOAT
    }
  }
}
node {
  name: "tinyLPR/dense_softmax/dense_softmax/BiasAdd"
  op: "BiasAdd"
  input: "tinyLPR/dense_softmax/dense_softmax/Tensordot"
  input: "tinyLPR/dense_softmax/dense_softmax/BiasAdd/ReadVariableOp"
  attr {
    key: "T"
    value {
      type: DT_FLOAT
    }
  }
  attr {
    key: "data_format"
    value {
      s: "NHWC"
    }
  }
}
node {
  name: "tinyLPR/dense_softmax/bn_softmax/batchnorm/ReadVariableOp"
  op: "Identity"
  input: "tinyLPR/dense_softmax/bn_softmax/batchnorm/ReadVariableOp/resource"
  attr {
    key: "T"
    value {
      type: DT_FLOAT
    }
  }
}
node {
  name: "tinyLPR/dense_softmax/bn_softmax/batchnorm/add"
  op: "AddV2"
  input: "tinyLPR/dense_softmax/bn_softmax/batchnorm/ReadVariableOp"
  input: "tinyLPR/dense_softmax/bn_softmax/batchnorm/add/y"
  attr {
    key: "T"
    value {
      type: DT_FLOAT
    }
  }
}
node {
  name: "tinyLPR/dense_softmax/bn_softmax/batchnorm/Rsqrt"
  op: "Rsqrt"
  input: "tinyLPR/dense_softmax/bn_softmax/batchnorm/add"
  attr {
    key: "T"
    value {
      type: DT_FLOAT
    }
  }
}
node {
  name: "tinyLPR/dense_softmax/bn_softmax/batchnorm/mul/ReadVariableOp"
  op: "Identity"
  input: "tinyLPR/dense_softmax/bn_softmax/batchnorm/mul/ReadVariableOp/resource"
  attr {
    key: "T"
    value {
      type: DT_FLOAT
    }
  }
}
node {
  name: "tinyLPR/dense_softmax/bn_softmax/batchnorm/mul"
  op: "Mul"
  input: "tinyLPR/dense_softmax/bn_softmax/batchnorm/Rsqrt"
  input: "tinyLPR/dense_softmax/bn_softmax/batchnorm/mul/ReadVariableOp"
  attr {
    key: "T"
    value {
      type: DT_FLOAT
    }
  }
}
node {
  name: "tinyLPR/dense_softmax/bn_softmax/batchnorm/mul_1"
  op: "Mul"
  input: "tinyLPR/dense_softmax/dense_softmax/BiasAdd"
  input: "tinyLPR/dense_softmax/bn_softmax/batchnorm/mul"
  attr {
    key: "T"
    value {
      type: DT_FLOAT
    }
  }
}
node {
  name: "tinyLPR/dense_softmax/bn_softmax/batchnorm/ReadVariableOp_2"
  op: "Identity"
  input: "tinyLPR/dense_softmax/bn_softmax/batchnorm/ReadVariableOp_2/resource"
  attr {
    key: "T"
    value {
      type: DT_FLOAT
    }
  }
}
node {
  name: "tinyLPR/dense_softmax/bn_softmax/batchnorm/ReadVariableOp_1"
  op: "Identity"
  input: "tinyLPR/dense_softmax/bn_softmax/batchnorm/ReadVariableOp_1/resource"
  attr {
    key: "T"
    value {
      type: DT_FLOAT
    }
  }
}
node {
  name: "tinyLPR/dense_softmax/bn_softmax/batchnorm/mul_2"
  op: "Mul"
  input: "tinyLPR/dense_softmax/bn_softmax/batchnorm/ReadVariableOp_1"
  input: "tinyLPR/dense_softmax/bn_softmax/batchnorm/mul"
  attr {
    key: "T"
    value {
      type: DT_FLOAT
    }
  }
}
node {
  name: "tinyLPR/dense_softmax/bn_softmax/batchnorm/sub"
  op: "Sub"
  input: "tinyLPR/dense_softmax/bn_softmax/batchnorm/ReadVariableOp_2"
  input: "tinyLPR/dense_softmax/bn_softmax/batchnorm/mul_2"
  attr {
    key: "T"
    value {
      type: DT_FLOAT
    }
  }
}
node {
  name: "tinyLPR/dense_softmax/bn_softmax/batchnorm/add_1"
  op: "AddV2"
  input: "tinyLPR/dense_softmax/bn_softmax/batchnorm/mul_1"
  input: "tinyLPR/dense_softmax/bn_softmax/batchnorm/sub"
  attr {
    key: "T"
    value {
      type: DT_FLOAT
    }
  }
}
node {
  name: "tinyLPR/dense_softmax/act_softmax/Softmax"
  op: "Softmax"
  input: "tinyLPR/dense_softmax/bn_softmax/batchnorm/add_1"
  attr {
    key: "T"
    value {
      type: DT_FLOAT
    }
  }
}
node {
  name: "NoOp"
  op: "NoOp"
  input: "^tinyLPR/c1_conv/BiasAdd/ReadVariableOp"
  input: "^tinyLPR/c1_conv/Conv2D/ReadVariableOp"
  input: "^tinyLPR/dense_softmax/bn_softmax/batchnorm/ReadVariableOp"
  input: "^tinyLPR/dense_softmax/bn_softmax/batchnorm/ReadVariableOp_1"
  input: "^tinyLPR/dense_softmax/bn_softmax/batchnorm/ReadVariableOp_2"
  input: "^tinyLPR/dense_softmax/bn_softmax/batchnorm/mul/ReadVariableOp"
  input: "^tinyLPR/dense_softmax/dense_softmax/BiasAdd/ReadVariableOp"
  input: "^tinyLPR/dense_softmax/dense_softmax/Tensordot/ReadVariableOp"
  input: "^tinyLPR/lraspp_f1/lraspp_bn_f1/FusedBatchNormV3/ReadVariableOp"
  input: "^tinyLPR/lraspp_f1/lraspp_bn_f1/FusedBatchNormV3/ReadVariableOp_1"
  input: "^tinyLPR/lraspp_f1/lraspp_bn_f1/ReadVariableOp"
  input: "^tinyLPR/lraspp_f1/lraspp_bn_f1/ReadVariableOp_1"
  input: "^tinyLPR/lraspp_f1/lraspp_conv_1x1_f1/Conv2D/ReadVariableOp"
  input: "^tinyLPR/lraspp_f2/lraspp_conv_1x1_f2/BiasAdd/ReadVariableOp"
  input: "^tinyLPR/lraspp_f2/lraspp_conv_1x1_f2/Conv2D/ReadVariableOp"
  input: "^tinyLPR/mobile_net_v3_small/bn1/FusedBatchNormV3/ReadVariableOp"
  input: "^tinyLPR/mobile_net_v3_small/bn1/FusedBatchNormV3/ReadVariableOp_1"
  input: "^tinyLPR/mobile_net_v3_small/bn1/ReadVariableOp"
  input: "^tinyLPR/mobile_net_v3_small/bn1/ReadVariableOp_1"
  input: "^tinyLPR/mobile_net_v3_small/bottle_neck/block/dw/batch_normalization_1/FusedBatchNormV3/ReadVariableOp"
  input: "^tinyLPR/mobile_net_v3_small/bottle_neck/block/dw/batch_normalization_1/FusedBatchNormV3/ReadVariableOp_1"
  input: "^tinyLPR/mobile_net_v3_small/bottle_neck/block/dw/batch_normalization_1/ReadVariableOp"
  input: "^tinyLPR/mobile_net_v3_small/bottle_neck/block/dw/batch_normalization_1/ReadVariableOp_1"
  input: "^tinyLPR/mobile_net_v3_small/bottle_neck/block/dw/depthwise_conv2d/depthwise/ReadVariableOp"
  input: "^tinyLPR/mobile_net_v3_small/bottle_neck/block/pw_in/batch_normalization/FusedBatchNormV3/ReadVariableOp"
  input: "^tinyLPR/mobile_net_v3_small/bottle_neck/block/pw_in/batch_normalization/FusedBatchNormV3/ReadVariableOp_1"
  input: "^tinyLPR/mobile_net_v3_small/bottle_neck/block/pw_in/batch_normalization/ReadVariableOp"
  input: "^tinyLPR/mobile_net_v3_small/bottle_neck/block/pw_in/batch_normalization/ReadVariableOp_1"
  input: "^tinyLPR/mobile_net_v3_small/bottle_neck/block/pw_in/conv2d/Conv2D/ReadVariableOp"
  input: "^tinyLPR/mobile_net_v3_small/bottle_neck/block/pw_out/batch_normalization_2/FusedBatchNormV3/ReadVariableOp"
  input: "^tinyLPR/mobile_net_v3_small/bottle_neck/block/pw_out/batch_normalization_2/FusedBatchNormV3/ReadVariableOp_1"
  input: "^tinyLPR/mobile_net_v3_small/bottle_neck/block/pw_out/batch_normalization_2/ReadVariableOp"
  input: "^tinyLPR/mobile_net_v3_small/bottle_neck/block/pw_out/batch_normalization_2/ReadVariableOp_1"
  input: "^tinyLPR/mobile_net_v3_small/bottle_neck/block/pw_out/conv2d_1/Conv2D/ReadVariableOp"
  input: "^tinyLPR/mobile_net_v3_small/bottle_neck_1/block/dw/batch_normalization_4/FusedBatchNormV3/ReadVariableOp"
  input: "^tinyLPR/mobile_net_v3_small/bottle_neck_1/block/dw/batch_normalization_4/FusedBatchNormV3/ReadVariableOp_1"
  input: "^tinyLPR/mobile_net_v3_small/bottle_neck_1/block/dw/batch_normalization_4/ReadVariableOp"
  input: "^tinyLPR/mobile_net_v3_small/bottle_neck_1/block/dw/batch_normalization_4/ReadVariableOp_1"
  input: "^tinyLPR/mobile_net_v3_small/bottle_neck_1/block/dw/depthwise_conv2d_1/depthwise/ReadVariableOp"
  input: "^tinyLPR/mobile_net_v3_small/bottle_neck_1/block/pw_in/batch_normalization_3/FusedBatchNormV3/ReadVariableOp"
  input: "^tinyLPR/mobile_net_v3_small/bottle_neck_1/block/pw_in/batch_normalization_3/FusedBatchNormV3/ReadVariableOp_1"
  input: "^tinyLPR/mobile_net_v3_small/bottle_neck_1/block/pw_in/batch_normalization_3/ReadVariableOp"
  input: "^tinyLPR/mobile_net_v3_small/bottle_neck_1/block/pw_in/batch_normalization_3/ReadVariableOp_1"
  input: "^tinyLPR/mobile_net_v3_small/bottle_neck_1/block/pw_in/conv2d_2/Conv2D/ReadVariableOp"
  input: "^tinyLPR/mobile_net_v3_small/bottle_neck_1/block/pw_out/batch_normalization_5/FusedBatchNormV3/ReadVariableOp"
  input: "^tinyLPR/mobile_net_v3_small/bottle_neck_1/block/pw_out/batch_normalization_5/FusedBatchNormV3/ReadVariableOp_1"
  input: "^tinyLPR/mobile_net_v3_small/bottle_neck_1/block/pw_out/batch_normalization_5/ReadVariableOp"
  input: "^tinyLPR/mobile_net_v3_small/bottle_neck_1/block/pw_out/batch_normalization_5/ReadVariableOp_1"
  input: "^tinyLPR/mobile_net_v3_small/bottle_neck_1/block/pw_out/conv2d_3/Conv2D/ReadVariableOp"
  input: "^tinyLPR/mobile_net_v3_small/bottle_neck_2/block/dw/batch_normalization_7/FusedBatchNormV3/ReadVariableOp"
  input: "^tinyLPR/mobile_net_v3_small/bottle_neck_2/block/dw/batch_normalization_7/FusedBatchNormV3/ReadVariableOp_1"
  input: "^tinyLPR/mobile_net_v3_small/bottle_neck_2/block/dw/batch_normalization_7/ReadVariableOp"
  input: "^tinyLPR/mobile_net_v3_small/bottle_neck_2/block/dw/batch_normalization_7/ReadVariableOp_1"
  input: "^tinyLPR/mobile_net_v3_small/bottle_neck_2/block/dw/depthwise_conv2d_2/depthwise/ReadVariableOp"
  input: "^tinyLPR/mobile_net_v3_small/bottle_neck_2/block/pw_in/batch_normalization_6/FusedBatchNormV3/ReadVariableOp"
  input: "^tinyLPR/mobile_net_v3_small/bottle_neck_2/block/pw_in/batch_normalization_6/FusedBatchNormV3/ReadVariableOp_1"
  input: "^tinyLPR/mobile_net_v3_small/bottle_neck_2/block/pw_in/batch_normalization_6/ReadVariableOp"
  input: "^tinyLPR/mobile_net_v3_small/bottle_neck_2/block/pw_in/batch_normalization_6/ReadVariableOp_1"
  input: "^tinyLPR/mobile_net_v3_small/bottle_neck_2/block/pw_in/conv2d_4/Conv2D/ReadVariableOp"
  input: "^tinyLPR/mobile_net_v3_small/bottle_neck_2/block/pw_out/batch_normalization_8/FusedBatchNormV3/ReadVariableOp"
  input: "^tinyLPR/mobile_net_v3_small/bottle_neck_2/block/pw_out/batch_normalization_8/FusedBatchNormV3/ReadVariableOp_1"
  input: "^tinyLPR/mobile_net_v3_small/bottle_neck_2/block/pw_out/batch_normalization_8/ReadVariableOp"
  input: "^tinyLPR/mobile_net_v3_small/bottle_neck_2/block/pw_out/batch_normalization_8/ReadVariableOp_1"
  input: "^tinyLPR/mobile_net_v3_small/bottle_neck_2/block/pw_out/conv2d_5/Conv2D/ReadVariableOp"
  input: "^tinyLPR/mobile_net_v3_small/bottle_neck_3/block/dw/batch_normalization_10/FusedBatchNormV3/ReadVariableOp"
  input: "^tinyLPR/mobile_net_v3_small/bottle_neck_3/block/dw/batch_normalization_10/FusedBatchNormV3/ReadVariableOp_1"
  input: "^tinyLPR/mobile_net_v3_small/bottle_neck_3/block/dw/batch_normalization_10/ReadVariableOp"
  input: "^tinyLPR/mobile_net_v3_small/bottle_neck_3/block/dw/batch_normalization_10/ReadVariableOp_1"
  input: "^tinyLPR/mobile_net_v3_small/bottle_neck_3/block/dw/depthwise_conv2d_3/depthwise/ReadVariableOp"
  input: "^tinyLPR/mobile_net_v3_small/bottle_neck_3/block/pw_in/batch_normalization_9/FusedBatchNormV3/ReadVariableOp"
  input: "^tinyLPR/mobile_net_v3_small/bottle_neck_3/block/pw_in/batch_normalization_9/FusedBatchNormV3/ReadVariableOp_1"
  input: "^tinyLPR/mobile_net_v3_small/bottle_neck_3/block/pw_in/batch_normalization_9/ReadVariableOp"
  input: "^tinyLPR/mobile_net_v3_small/bottle_neck_3/block/pw_in/batch_normalization_9/ReadVariableOp_1"
  input: "^tinyLPR/mobile_net_v3_small/bottle_neck_3/block/pw_in/conv2d_6/Conv2D/ReadVariableOp"
  input: "^tinyLPR/mobile_net_v3_small/bottle_neck_3/block/pw_out/batch_normalization_11/FusedBatchNormV3/ReadVariableOp"
  input: "^tinyLPR/mobile_net_v3_small/bottle_neck_3/block/pw_out/batch_normalization_11/FusedBatchNormV3/ReadVariableOp_1"
  input: "^tinyLPR/mobile_net_v3_small/bottle_neck_3/block/pw_out/batch_normalization_11/ReadVariableOp"
  input: "^tinyLPR/mobile_net_v3_small/bottle_neck_3/block/pw_out/batch_normalization_11/ReadVariableOp_1"
  input: "^tinyLPR/mobile_net_v3_small/bottle_neck_3/block/pw_out/conv2d_7/Conv2D/ReadVariableOp"
  input: "^tinyLPR/mobile_net_v3_small/bottle_neck_4/block/dw/batch_normalization_13/FusedBatchNormV3/ReadVariableOp"
  input: "^tinyLPR/mobile_net_v3_small/bottle_neck_4/block/dw/batch_normalization_13/FusedBatchNormV3/ReadVariableOp_1"
  input: "^tinyLPR/mobile_net_v3_small/bottle_neck_4/block/dw/batch_normalization_13/ReadVariableOp"
  input: "^tinyLPR/mobile_net_v3_small/bottle_neck_4/block/dw/batch_normalization_13/ReadVariableOp_1"
  input: "^tinyLPR/mobile_net_v3_small/bottle_neck_4/block/dw/depthwise_conv2d_4/depthwise/ReadVariableOp"
  input: "^tinyLPR/mobile_net_v3_small/bottle_neck_4/block/pw_in/batch_normalization_12/FusedBatchNormV3/ReadVariableOp"
  input: "^tinyLPR/mobile_net_v3_small/bottle_neck_4/block/pw_in/batch_normalization_12/FusedBatchNormV3/ReadVariableOp_1"
  input: "^tinyLPR/mobile_net_v3_small/bottle_neck_4/block/pw_in/batch_normalization_12/ReadVariableOp"
  input: "^tinyLPR/mobile_net_v3_small/bottle_neck_4/block/pw_in/batch_normalization_12/ReadVariableOp_1"
  input: "^tinyLPR/mobile_net_v3_small/bottle_neck_4/block/pw_in/conv2d_8/Conv2D/ReadVariableOp"
  input: "^tinyLPR/mobile_net_v3_small/bottle_neck_4/block/pw_out/batch_normalization_14/FusedBatchNormV3/ReadVariableOp"
  input: "^tinyLPR/mobile_net_v3_small/bottle_neck_4/block/pw_out/batch_normalization_14/FusedBatchNormV3/ReadVariableOp_1"
  input: "^tinyLPR/mobile_net_v3_small/bottle_neck_4/block/pw_out/batch_normalization_14/ReadVariableOp"
  input: "^tinyLPR/mobile_net_v3_small/bottle_neck_4/block/pw_out/batch_normalization_14/ReadVariableOp_1"
  input: "^tinyLPR/mobile_net_v3_small/bottle_neck_4/block/pw_out/conv2d_9/Conv2D/ReadVariableOp"
  input: "^tinyLPR/mobile_net_v3_small/bottle_neck_5/block/dw/batch_normalization_16/FusedBatchNormV3/ReadVariableOp"
  input: "^tinyLPR/mobile_net_v3_small/bottle_neck_5/block/dw/batch_normalization_16/FusedBatchNormV3/ReadVariableOp_1"
  input: "^tinyLPR/mobile_net_v3_small/bottle_neck_5/block/dw/batch_normalization_16/ReadVariableOp"
  input: "^tinyLPR/mobile_net_v3_small/bottle_neck_5/block/dw/batch_normalization_16/ReadVariableOp_1"
  input: "^tinyLPR/mobile_net_v3_small/bottle_neck_5/block/dw/depthwise_conv2d_5/depthwise/ReadVariableOp"
  input: "^tinyLPR/mobile_net_v3_small/bottle_neck_5/block/pw_in/batch_normalization_15/FusedBatchNormV3/ReadVariableOp"
  input: "^tinyLPR/mobile_net_v3_small/bottle_neck_5/block/pw_in/batch_normalization_15/FusedBatchNormV3/ReadVariableOp_1"
  input: "^tinyLPR/mobile_net_v3_small/bottle_neck_5/block/pw_in/batch_normalization_15/ReadVariableOp"
  input: "^tinyLPR/mobile_net_v3_small/bottle_neck_5/block/pw_in/batch_normalization_15/ReadVariableOp_1"
  input: "^tinyLPR/mobile_net_v3_small/bottle_neck_5/block/pw_in/conv2d_10/Conv2D/ReadVariableOp"
  input: "^tinyLPR/mobile_net_v3_small/bottle_neck_5/block/pw_out/batch_normalization_17/FusedBatchNormV3/ReadVariableOp"
  input: "^tinyLPR/mobile_net_v3_small/bottle_neck_5/block/pw_out/batch_normalization_17/FusedBatchNormV3/ReadVariableOp_1"
  input: "^tinyLPR/mobile_net_v3_small/bottle_neck_5/block/pw_out/batch_normalization_17/ReadVariableOp"
  input: "^tinyLPR/mobile_net_v3_small/bottle_neck_5/block/pw_out/batch_normalization_17/ReadVariableOp_1"
  input: "^tinyLPR/mobile_net_v3_small/bottle_neck_5/block/pw_out/conv2d_11/Conv2D/ReadVariableOp"
  input: "^tinyLPR/mobile_net_v3_small/bottle_neck_6/block/dw/batch_normalization_19/FusedBatchNormV3/ReadVariableOp"
  input: "^tinyLPR/mobile_net_v3_small/bottle_neck_6/block/dw/batch_normalization_19/FusedBatchNormV3/ReadVariableOp_1"
  input: "^tinyLPR/mobile_net_v3_small/bottle_neck_6/block/dw/batch_normalization_19/ReadVariableOp"
  input: "^tinyLPR/mobile_net_v3_small/bottle_neck_6/block/dw/batch_normalization_19/ReadVariableOp_1"
  input: "^tinyLPR/mobile_net_v3_small/bottle_neck_6/block/dw/depthwise_conv2d_6/depthwise/ReadVariableOp"
  input: "^tinyLPR/mobile_net_v3_small/bottle_neck_6/block/pw_in/batch_normalization_18/FusedBatchNormV3/ReadVariableOp"
  input: "^tinyLPR/mobile_net_v3_small/bottle_neck_6/block/pw_in/batch_normalization_18/FusedBatchNormV3/ReadVariableOp_1"
  input: "^tinyLPR/mobile_net_v3_small/bottle_neck_6/block/pw_in/batch_normalization_18/ReadVariableOp"
  input: "^tinyLPR/mobile_net_v3_small/bottle_neck_6/block/pw_in/batch_normalization_18/ReadVariableOp_1"
  input: "^tinyLPR/mobile_net_v3_small/bottle_neck_6/block/pw_in/conv2d_12/Conv2D/ReadVariableOp"
  input: "^tinyLPR/mobile_net_v3_small/bottle_neck_6/block/pw_out/batch_normalization_20/FusedBatchNormV3/ReadVariableOp"
  input: "^tinyLPR/mobile_net_v3_small/bottle_neck_6/block/pw_out/batch_normalization_20/FusedBatchNormV3/ReadVariableOp_1"
  input: "^tinyLPR/mobile_net_v3_small/bottle_neck_6/block/pw_out/batch_normalization_20/ReadVariableOp"
  input: "^tinyLPR/mobile_net_v3_small/bottle_neck_6/block/pw_out/batch_normalization_20/ReadVariableOp_1"
  input: "^tinyLPR/mobile_net_v3_small/bottle_neck_6/block/pw_out/conv2d_13/Conv2D/ReadVariableOp"
  input: "^tinyLPR/mobile_net_v3_small/bottle_neck_7/block/dw/batch_normalization_22/FusedBatchNormV3/ReadVariableOp"
  input: "^tinyLPR/mobile_net_v3_small/bottle_neck_7/block/dw/batch_normalization_22/FusedBatchNormV3/ReadVariableOp_1"
  input: "^tinyLPR/mobile_net_v3_small/bottle_neck_7/block/dw/batch_normalization_22/ReadVariableOp"
  input: "^tinyLPR/mobile_net_v3_small/bottle_neck_7/block/dw/batch_normalization_22/ReadVariableOp_1"
  input: "^tinyLPR/mobile_net_v3_small/bottle_neck_7/block/dw/depthwise_conv2d_7/depthwise/ReadVariableOp"
  input: "^tinyLPR/mobile_net_v3_small/bottle_neck_7/block/pw_in/batch_normalization_21/FusedBatchNormV3/ReadVariableOp"
  input: "^tinyLPR/mobile_net_v3_small/bottle_neck_7/block/pw_in/batch_normalization_21/FusedBatchNormV3/ReadVariableOp_1"
  input: "^tinyLPR/mobile_net_v3_small/bottle_neck_7/block/pw_in/batch_normalization_21/ReadVariableOp"
  input: "^tinyLPR/mobile_net_v3_small/bottle_neck_7/block/pw_in/batch_normalization_21/ReadVariableOp_1"
  input: "^tinyLPR/mobile_net_v3_small/bottle_neck_7/block/pw_in/conv2d_14/Conv2D/ReadVariableOp"
  input: "^tinyLPR/mobile_net_v3_small/bottle_neck_7/block/pw_out/batch_normalization_23/FusedBatchNormV3/ReadVariableOp"
  input: "^tinyLPR/mobile_net_v3_small/bottle_neck_7/block/pw_out/batch_normalization_23/FusedBatchNormV3/ReadVariableOp_1"
  input: "^tinyLPR/mobile_net_v3_small/bottle_neck_7/block/pw_out/batch_normalization_23/ReadVariableOp"
  input: "^tinyLPR/mobile_net_v3_small/bottle_neck_7/block/pw_out/batch_normalization_23/ReadVariableOp_1"
  input: "^tinyLPR/mobile_net_v3_small/bottle_neck_7/block/pw_out/conv2d_15/Conv2D/ReadVariableOp"
  input: "^tinyLPR/mobile_net_v3_small/bottle_neck_8/block/dw/batch_normalization_25/FusedBatchNormV3/ReadVariableOp"
  input: "^tinyLPR/mobile_net_v3_small/bottle_neck_8/block/dw/batch_normalization_25/FusedBatchNormV3/ReadVariableOp_1"
  input: "^tinyLPR/mobile_net_v3_small/bottle_neck_8/block/dw/batch_normalization_25/ReadVariableOp"
  input: "^tinyLPR/mobile_net_v3_small/bottle_neck_8/block/dw/batch_normalization_25/ReadVariableOp_1"
  input: "^tinyLPR/mobile_net_v3_small/bottle_neck_8/block/dw/depthwise_conv2d_8/depthwise/ReadVariableOp"
  input: "^tinyLPR/mobile_net_v3_small/bottle_neck_8/block/pw_in/batch_normalization_24/FusedBatchNormV3/ReadVariableOp"
  input: "^tinyLPR/mobile_net_v3_small/bottle_neck_8/block/pw_in/batch_normalization_24/FusedBatchNormV3/ReadVariableOp_1"
  input: "^tinyLPR/mobile_net_v3_small/bottle_neck_8/block/pw_in/batch_normalization_24/ReadVariableOp"
  input: "^tinyLPR/mobile_net_v3_small/bottle_neck_8/block/pw_in/batch_normalization_24/ReadVariableOp_1"
  input: "^tinyLPR/mobile_net_v3_small/bottle_neck_8/block/pw_in/conv2d_16/Conv2D/ReadVariableOp"
  input: "^tinyLPR/mobile_net_v3_small/bottle_neck_8/block/pw_out/batch_normalization_26/FusedBatchNormV3/ReadVariableOp"
  input: "^tinyLPR/mobile_net_v3_small/bottle_neck_8/block/pw_out/batch_normalization_26/FusedBatchNormV3/ReadVariableOp_1"
  input: "^tinyLPR/mobile_net_v3_small/bottle_neck_8/block/pw_out/batch_normalization_26/ReadVariableOp"
  input: "^tinyLPR/mobile_net_v3_small/bottle_neck_8/block/pw_out/batch_normalization_26/ReadVariableOp_1"
  input: "^tinyLPR/mobile_net_v3_small/bottle_neck_8/block/pw_out/conv2d_17/Conv2D/ReadVariableOp"
  input: "^tinyLPR/mobile_net_v3_small/conv1/Conv2D/ReadVariableOp"
  attr {
    key: "_acd_function_control_output"
    value {
      b: true
    }
  }
}
node {
  name: "Identity"
  op: "Identity"
  input: "tinyLPR/dense_softmax/act_softmax/Softmax"
  input: "^NoOp"
  attr {
    key: "T"
    value {
      type: DT_FLOAT
    }
  }
}
versions {
  producer: 1205
}
